generator_combined_GEN1_WEIGHTSPEED_0.70_WEIGHTDISTANCE_1.00.pth (torch, 15319 bytes, 4 tensors)

hidden.weight f4 [256, 10]
00000000: 2da1 883e 31d4 833e 6091 d5bd ff06 933e
00000010: 021c b8bd 1041 7a3d 6dc2 06be 81ad 3a3e
00000020: ba91 483e c112 20be 4ef9 7f3e cf4a 823d
00000030: ad5c 863e 7dfb 3a3d 7221 303e 7dd5 2bbd
00000040: f86a 633e 69fa 4b3d fc71 a0bd 0a08 1a3d
00000050: 1006 97bd ada5 303c 76c8 23bd 25c7 183e
00000060: da30 49be 34aa 91bd 15d6 38bd 8776 e6bd
00000070: 915e 0c3b f4d6 60be 55f3 9e3e 0ed1 8bbe
00000080: b28e 5a3e 3f98 4a3d e28b fcbd 52fc 443e
00000090: 98b4 913d dcf2 803e 2e7f 7b3c 9dde 6ebd
000000a0: c597 e23d 8ffc b6bd f4cc d23d 9e1b 8f3e
000000b0: 8d0a 263e 6b0c 0fbe 227e 513e 5095 5d3d
000000c0: 46cd a93d 83ad e5bd f23d abbe 9401 f8bd
000000d0: 645d 58be b98e 843e 703c e83d 7056 053e
000000e0: 5f5b a73d 7596 c6bb dd65 2a3e dad0 12be
000000f0: 7b48 a230 f1e3 01be 3722 c53c 14b8 04bd
00000100: 86a1 c13c b2c5 c4bb 254b 2f3e 6a5f cdbd
00000110: 4d96 cfbd ce9b cfbd 7a45 9b3e 6960 d23d
00000120: 907f 8d3e cddd 85be bf0f aabe c500 7ebe
00000130: 83dd 3ebe dcec 003e 5bf3 3a3d 4379 323e
00000140: 444d a0bd 1da3 01be 3290 a83d 9e78 42bd
00000150: e3e7 d53d 7e72 27bc 840b c13d 48fc 1ebe
00000160: 4b78 99bd bcdb be3c eba4 eb3d 89cf 77bd
00000170: 5aae 353e c4ff 703e 6001 5cbe 20f3 15be
00000180: a8ac a33e fc87 aebd b490 3bbd 0d57 5cbe
00000190: 906a c1bd db15 4a3c 0f80 c0b9 d631 0fbe
000001a0: 7ca7 1598 590e 02be 303a 35be 4e5f b4bd
000001b0: fc9d 3dbe 13e6 e7bd 76c1 643e 72d5 773b
000001c0: e6c8 c43c bca8 4fbe 1410 f4bd 87fd f2bc
000001d0: 8125 a83a a717 3fbe 5879 5fbd ccf2 d0bd
000001e0: 09fd d513 7bad 20bd d5fb b5b2 c663 00be
000001f0: cb11 03be fbcf c7bd 83ab 02bd 9ece 22be
00000200: 6420 323e 72a7 9dbb b20c 823e 08e2 c93d
00000210: 451b 7fbe bee9 5e3e 691d 8ebd 2730 f8bd
00000220: b17c 92be 8082 a0be a0c4 013d 1efc 99bc
00000230: b8dc 183e fe88 86be 6605 513e d550 6fbe
00000240: 6b38 99bd 9495 833d 666a 3e3e d258 813e
00000250: c2b5 4d3e 183d 2cbe ca78 4f3c e6a6 5ebd
00000260: 9250 7eb8 292b 16be 66cc 483e 1fae 11be
00000270: 36d5 aa3d b9b6 0b3d 2fea e33c 7e78 aebd
00000280: 69c0 863e 786d 963d 6e21 913d c554 8dbe
00000290: 615f 1b3e 50d4 38bd 3b2c 29be d752 8c3e
000002a0: 17cc 333d e2ea e2bd f454 9abd ac76 c9a4
000002b0: 79ec b83d 9cd2 5abc 882b c0bd 09d0 02bd
000002c0: 3bbb 15be a3ea 103d da13 1e3e 0c6a 52be
000002d0: b14f 433d 7a6c 2a3e 6e63 b13d c792 e2bd
000002e0: 6140 3d3e bd53 2b3e 8293 c43d 8d48 5bbd
000002f0: fa6f 08bd e422 7a3c 647a c2bd cf54 bebd
00000300: c9db 6f3e 3ef1 873e c771 dcbb 3e3b 95bd
00000310: 8873 ffbc f650 acbc c751 8f3c b8da c23c
00000320: 39fb 47be 7486 1dbd f644 333e cfe1 323d
00000330: 4938 cd27 c87d d3bd 8fd7 d8bd 930f 44be
00000340: 21d2 e5bc a15e fc3c 550f 2f3e acc2 ff3d
00000350: 1ce8 91be bc50 58be 1af4 7ebd 2b5f 913e
00000360: c3eb d93c 4b14 d3bd bad4 8e3d 7836 79bd
00000370: a962 69be 4310 713e eaca eabd 91fc 75bd
00000380: 84ba 96be 7186 5b3e 520d 603e 39f5 f23d
00000390: 0c65 17be 6435 6bbe 6502 87be 0d18 663e
000003a0: 1bbe 103e 53b8 823e d509 213e f373 8f3d
000003b0: 1703 8cbb 8665 7fbe 9ac2 38be cd9d 50be
000003c0: 3305 483d 7695 91bd d841 a8bb 921a c3bd
000003d0: 4719 4ebb 106a 08be 2e05 f2bd 12ca f03c
000003e0: d236 b1bc a62d dc3d 821b dcbc d98f 11be
000003f0: 4a3d 2dbb 9004 8ebd 68c6 c0bc d5bc 55be
0.26685467 0.25747827 -0.10428119 0.28716275 -0.08989717 0.061097205 -0.13160105 0.18230249
0.1958684 -0.15632154 0.24997446 0.06361925 0.2624258 0.045649994 0.17200258 -0.041951645
0.22208774 0.049799357 -0.07834241 0.037605323 -0.07374203 0.010781688 -0.039986096 0.14919718
-0.19647542 -0.07112542 -0.04512604 -0.11253076 0.002141867 -0.21956998 0.31045023 -0.27307934
0.21343496 0.0494616 -0.12331368 0.19236878 0.07114524 0.25185287 0.015350146 -0.05831777
0.11064104 -0.089348905 0.10292998 0.27950758 0.16214962 -0.13969581 0.20458272 0.054097474
0.08291106 -0.11214735 -0.33445698 -0.12109676 -0.21129376 0.2589014 0.113396525 0.13021255
0.081717245 -0.0060604163 0.1664042 -0.14337483 1.1807652e-09 -0.12684609 0.024064166 -0.032402113
0.02363659 -0.0060050124 0.17118509 -0.100279644 -0.101360895 -0.10137139 0.30326444 0.10272295
0.27636385 -0.26145783 -0.33215138 -0.24804981 -0.18639188 0.12590355 0.045642238 0.1742907
-0.07827237 -0.12659879 0.08230628 -0.04747831 0.104446195 -0.010220168 0.094260246 -0.15525925
-0.07493647 0.023298137 0.11506065 -0.060500655 0.17742291 0.23535067 -0.214849 -0.14643526
0.31967664 -0.08522031 -0.045792297 -0.21517582 -0.09444153 0.012334312 -0.00036716505 -0.13983855
-1.9342357e-24 -0.12700786 -0.17697978 -0.088072404 -0.18517298 -0.1132318 0.22339424 0.0037816432
0.024021577 -0.20279211 -0.11917129 -0.029661907 0.001282856 -0.18661366 -0.05455908 -0.1020256
5.401827e-27 -0.039227944 -2.1185693e-08 -0.1253806 -0.12799756 -0.09756466 -0.031901848 -0.1589913
0.17395169 -0.004811221 0.2540031 0.09857565 -0.24912746 0.21768853 -0.06939203 -0.12118559
-0.28610757 -0.31349564 0.031681657 -0.018796977 0.14927948 -0.26276392 0.20412216 -0.23370679
-0.07481464 0.06425014 0.18595275 0.25263077 0.20088866 -0.1682018 0.012663076 -0.054358386
-6.0633356e-05 -0.14664902 0.19609222 -0.14226578 0.08341448 0.034109805 0.027821628 -0.08519076
0.26318672 0.07345098 0.07086454 -0.27603737 0.15173103 -0.045124352 -0.16520779 0.27406952
0.043895807 -0.110799566 -0.07535735 -8.737089e-17 0.090294786 -0.013355877 -0.09383303 -0.03193668
-0.14622204 0.035380017 0.1543726 -0.20548266 0.04768342 0.16642943 0.08661543 -0.11063152
0.1848159 0.16731162 0.095984474 -0.053535987 -0.033309914 0.015267108 -0.094960004 -0.0929352
0.23423685 0.2655124 -0.0067274305 -0.0728669 -0.03118302 -0.021034699 0.01749505 0.023785934
-0.19529428 -0.038458303 0.17506775 0.04367238 5.6959955e-15 -0.10326725 -0.105879895 -0.19146566
-0.028054299 0.030806841 0.17095692 0.124883026 -0.28497398 -0.21124548 -0.062244512 0.2839292
0.026601678 -0.10306605 0.06974168 -0.06084296 -0.22791542 0.2354136 -0.11464484 -0.06005532
-0.29439175 0.21438004 0.21880081 0.11863179 -0.1478464 -0.22969586 -0.26369014 0.22470112
0.1413502 0.25531253 0.15726407 0.070045374 -0.0042728293 -0.24941072 -0.18042985 -0.20372696
0.048833083 -0.071085855 -0.0051348023 -0.09526552 -0.0031448172 -0.1332171 -0.11817394 0.02939323
-0.021632586 0.10750894 -0.026868585 -0.1421503 -0.0026434236 -0.06934464 -0.023532107 -0.20872815

hidden.bias f4 [256]
00000000: e415 27be 91ed 653e 443e 193e 7000 3f3d
00000010: d4b9 17be 78c6 893d 7834 4013 beb5 923e
00000020: d6ce 693a 5cb5 363d 1bbf 7b32 3867 a93d
00000030: 4afa a315 138f 8a3e 486b 253e 0a60 18be
00000040: fd5c 5a3b 015b 35be fe76 75be 764e 733d
00000050: 1369 073c a3a6 47bd 44e2 9b3e 9a63 37be
00000060: 1e90 52bd b0e0 c3ba 9888 8b3b b2ab e2bc
00000070: 0b3b 8b3e ce1e 56bd 372d a4bd 0bf5 c13c
00000080: 3ff8 163e 2204 d63d 9c58 ad3d e828 673d
00000090: 99d2 893e 1985 3d3e 3297 633e a6e8 54bd
000000a0: afd3 2ebe 4eb6 e2bd 3826 f23d ad83 4c3e
000000b0: a2b1 edbd a3dc 873e 4f9f 3b3a b941 763a
000000c0: a515 869f 95e9 72bd dda6 953e 3a02 c1a2
000000d0: d2ad 413e bf71 76be c03d 26be 7988 1b3d
000000e0: 3626 763e 01bc 0b3e 9ac8 883d 6a16 61be
000000f0: 4047 cb16 8a16 f6bd 4bf0 36be df4d 003a
00000100: 0875 e5bd 5618 953e 34de 29be 7c4c d83d
00000110: c14a 413e d614 80be 1b9a 9d3d 86fd 19bd
00000120: 3ff7 2b3e 1e3b 9b3e ddb0 19be 5a7f 0ebe
00000130: b171 243e 2944 dd3c 9e9e a2b7 c8bb 8e3e
00000140: b663 15be a6c4 a0bc bb57 5a3e d40c 273e
00000150: 7602 eebd 3850 bf3d 4d13 70be 86d2 31be
00000160: 0ff0 553e 884a 79bd 128a 1fbe 1d08 983c
00000170: da1c a83d 8cc1 debd cfc8 febd d0ed 5abe
00000180: 1144 9b3d f5a3 47be d3cc 033d 31d9 04bc
00000190: 434a f2bd 40e9 d8bc 546b 1cbe 8fd5 a7bd
000001a0: 3f5f 65bc c574 3dbe ec75 8fbe 1f92 6d3e
000001b0: 057e f93c 5c0c 0abe 75ec ecbb d7c1 6c3e
000001c0: 6cd0 30be 4f5a 3ebe 6959 0ebe 10e3 98bc
000001d0: d7c7 e0bb dc50 7bbe 936c 053e 342e 1cbe
000001e0: fb94 973e 676f 63be bfc1 13bd 123d 833d
000001f0: 0711 82bd fd0d 933e 59b4 5abe f156 b5bc
00000200: a5c6 11be ba4b ca3d 2abe 8d3e 8dae 933e
00000210: ac78 0b3d 3845 25be c7ea 9b3e b30d ea3c
00000220: 6811 003e f410 18be c90e c4bd 5250 8cbe
00000230: d3b5 4b3e 7c24 f33a 52d3 0cbe 317d 093d
00000240: 0f4f 5dbd e08a d23c 5f78 c43d 1032 24be
00000250: 7a15 233d fea7 e4bd 67df 9c3d 0f15 9abe
00000260: b1e6 5c3d 93ac a03e 8475 933e 1b08 eb3d
00000270: 2eb8 733e 7548 9f3e 32bd c53d 3444 f43c
00000280: 369c 663d cbfc 903e 7916 7c3e 9dc3 85bd
00000290: 6c9d 0ea1 db00 99bd dcc3 e23d 0718 5bbe
000002a0: 62c3 ed3d 190c c9bd d904 e43d 38c4 d43d
000002b0: ff68 95bd 4dba 2b3e 782b 0d3e 0789 81be
000002c0: 4300 a23e 686f 8a3e 93c1 433e d8f4 cbb7
000002d0: bd8f 0e3d 3f21 11be 9f22 e1bd f967 1b3e
000002e0: b378 0b3e 34f8 f73d 13a2 8cbe ac3c 883e
000002f0: 10c1 69bd c702 8e3e 1d74 863e bf2e 1f3d
00000300: 4da7 9f3e ba56 c23d 194c 3d3e 0d01 00bd
00000310: a12d 993e 1280 ed3d 7697 3f3e 62a8 7cbd
00000320: 91ae 0e3e d857 413e f1a9 1bbe cc91 943e
00000330: 6391 f6bd 9ab4 03be d741 31be fb24 c23d
00000340: 16e4 16be 329d 01be 5459 25be 0e29 9f3d
00000350: 2c37 9bbe b6da 1cbe bfa4 99ba c8c2 eb3c
00000360: 3ea9 20be af3d de3d 77e0 f5bd a2c1 34be
00000370: 9706 65bd cb78 aebd f29a 503e 9030 02be
00000380: 4888 bab5 2281 4e3d 41c8 3dbe 4ef5 783e
00000390: 2f9b 79bd 62e5 47bd 77c9 d8bd 913a 21bd
000003a0: d6bd eebd 9536 42be 9d63 d43d 14e5 a3bb
000003b0: aa5c 9c3e 1620 5c3e 7916 9c3e f805 ac3c
000003c0: ff23 233e d56d 993e 68e5 863e 3a54 1cbe
000003d0: 7c39 06bc 0abd 98be a7fa 7a3c 4876 0dbd
000003e0: 7de6 973e e7b0 553d 5beb 6e13 fab8 5bbe
000003f0: 0197 61be d39c 703d 2fb1 19be 216f 08be
-0.16316944 0.22453906 0.14965159 0.046631277 -0.14816982 0.06727308 2.4259676e-27 0.28654283
0.00089190656 0.04460655 1.4653575e-08 0.082716405 6.623006e-26 0.27062282 0.16154206 -0.14880386
0.0033319585 -0.17710496 -0.23971173 0.059400998 0.008264798 -0.0487429 0.30446064 -0.17909089
-0.051406972 -0.0014944281 0.0042582266 -0.027669761 0.27193484 -0.05227547 -0.080164365 0.023676416
0.14743136 0.10450007 0.084641665 0.056435496 0.26918486 0.18507804 0.22225645 -0.051979683
-0.17072938 -0.11069928 0.11823696 0.19972105 -0.116061464 0.2653552 0.0007157223 0.0009393949
-5.6787015e-20 -0.059304792 0.2922887 -5.2315112e-18 0.18913963 -0.24066828 -0.16234493 0.037971947
0.24038014 0.13645937 0.06678887 -0.21981207 3.2841384e-25 -0.12016018 -0.17865102 0.0004894416
-0.112039626 0.2912013 -0.1658867 0.10561463 0.18876173 -0.25015897 0.07695409 -0.037595294
0.16793536 0.3031854 -0.15008874 -0.13915768 0.16058995 0.02701004 -1.9385767e-05 0.2787764
-0.14588818 -0.01962502 0.21322529 0.16313487 -0.11621563 0.093414724 -0.23444863 -0.17365465
0.20892356 -0.060862094 -0.15580013 0.018558556 0.08208628 -0.1087676 -0.12440645 -0.21379781
0.07581342 -0.19496138 0.032177757 -0.008108423 -0.118305705 -0.02647841 -0.15275317 -0.0819503
-0.013999759 -0.18501575 -0.28019655 0.23200272 0.030455599 -0.13481277 -0.0072303363 0.23120819
-0.17267007 -0.18589137 -0.13901295 -0.01866296 -0.0068597603 -0.24542564 0.13029699 -0.15252
0.2960585 -0.22210465 -0.036073443 0.064081326 -0.06350904 0.2872161 -0.2135786 -0.022136183
-0.14235933 0.09877725 0.27684146 0.2884411 0.03405063 -0.16139686 0.30452558 0.028570985
0.1250664 -0.14850217 -0.095731325 -0.2740503 0.19893579 0.0018550302 -0.13752487 0.033566657
-0.054030474 0.025700986 0.095932715 -0.16034722 0.039815404 -0.111648545 0.07659798 -0.3009419
0.053930942 0.31381664 0.28800595 0.11476155 0.23800728 0.31109968 0.09655227 0.029817678
0.056301318 0.28317866 0.24617948 -0.06531451 -4.831982e-19 -0.07470866 0.110725135 -0.21395884
0.11609532 -0.098167606 0.11133737 0.10388988 -0.07295417 0.16770287 0.13786113 -0.25299856
0.31640825 0.2703812 0.19116811 -2.43135e-05 0.03480505 -0.14172839 -0.109929316 0.15176381
0.13620262 0.12107888 -0.27467403 0.2660879 -0.057068884 0.27736494 0.26260462 0.03886294
0.31182328 0.09489198 0.1848606 -0.031251002 0.29917625 0.11596693 0.18710122 -0.06168402
0.1393378 0.18881166 -0.15201546 0.29017484 -0.12039449 -0.12861863 -0.17310272 0.0947971
-0.14735445 -0.12657622 -0.16147357 0.077715024 -0.3031553 -0.15317807 -0.0011722072 0.028779402
-0.15689561 0.10851609 -0.12005704 -0.1765199 -0.055914488 -0.08519133 0.20371607 -0.12713838
-1.3897743e-06 0.05041612 -0.18533422 0.24312326 -0.06093901 -0.04880274 -0.10585301 -0.039362494
-0.11657302 -0.18966134 0.10370562 -0.0050016735 0.30539447 0.21496615 0.30485895 0.02099894
0.159317 0.29966608 0.26346898 -0.15266505 -0.008192416 -0.29831725 0.015318549 -0.03453663
0.29668036 0.05217066 3.0155862e-27 -0.21457282 -0.2203026 0.05874331 -0.15008996 -0.13323642

theta_out.weight f4 [1, 256]
00000000: 422d 4c3d bbce 06bd f2a4 30bd 2d93 5a3d
00000010: 1db9 d33c 565b 26bd 7033 482f 9f48 fb3c
00000020: 2d74 28bb 38ab 183d fde4 9422 809d 0015
00000030: f7f7 7b3b b266 acbb 25df 243d 61d5 1ab8
00000040: 6d13 69bd c06c e339 7832 0fbd 9166 cfbc
00000050: c017 0938 bacb 89bc 3123 41bd 641f 4ebc
00000060: cad9 173b e895 9b96 d109 183d b7dd 4abc
00000070: 9ae3 693c e0e0 80b9 24c1 723b 7f5e 1a3d
00000080: 710c ca99 23c8 bc3d 5296 0bbb 46c3 a73c
00000090: b887 78bd 2d16 b33c 8ac1 623c 9304 e23c
000000a0: f3df 8223 4d99 c6bd be90 a4bd 2f33 983c
000000b0: 63d7 19bd f76b 4fbd 02f1 8f3b ff43 083c
000000c0: 26c5 1dba e8f4 033d 8b8d e73a 7db9 5eb7
000000d0: 07c4 de3c fa06 bfbd a254 5b3c 2b87 a33d
000000e0: 74b0 093d d7f1 713c 1fa9 a6bc 464f 3c1e
000000f0: 8f68 a032 e202 e1a5 f48f 1d20 9c15 b299
00000100: 3256 19b5 4b7d 2fbd 5a1f 81bd 6fc4 85bd
00000110: 8e9f 07bd 2518 7f3d 2686 1fa0 a05f aabd
00000120: bffa 1bbd 41b5 e83c a49a 84bb b778 13bd
00000130: 7788 f7b3 a85c e9bb 9f48 9816 bd39 5cbd
00000140: 11cf d93c 9187 fa3c 992e ad3d 0f3d 5f3d
00000150: 614d 5ab6 c6ea fa3c 1a10 07bd eb56 223d
00000160: 80fb 06bc 8abf 88bd fdb2 93bd 3a11 5a3b
00000170: da58 0f3c 18c9 423b d336 efb2 23fe 222f
00000180: 30d1 ec39 06ea 8cbd bffe 41bd ada6 c437
00000190: 266d bab8 ed7c 3d3a bb5a a532 3a76 3032
000001a0: 55de cf3c 6521 a13c 2066 b6bb 9989 113d
000001b0: 6074 c7bc ea1a 16bd a48c 2dbc 4cc3 fa3c
000001c0: 4159 0c3a 5829 103d e655 66b0 5ac3 3bbc
000001d0: 8120 64bd a155 223d cb64 b5b9 e8f7 4fb5
000001e0: aa85 853d 1786 113d 18c0 c3bc 55a6 60bd
000001f0: 4303 dbb9 f624 543d 127e 8cbd f3c2 923d
00000200: c992 b43a 7b6b 6cbc 297b 0ebb 68e7 193d
00000210: 4071 363d 0659 3a3d 4d7e 853c fd04 a0bd
00000220: 8501 3f39 0409 683d 3862 fcbd c3e1 973c
00000230: 293f ebb7 0fd5 07b9 3757 a594 63b3 1e3a
00000240: 0a07 aaaa d912 86bd 46b9 013d 05af a63d
00000250: 72d6 77bb 4c28 cfb9 5f0b 2c3d fcb0 80bd
00000260: 10fb 69bd 087d 503b 9867 083d 79a0 b3bd
00000270: 3be6 b1bc a560 2fbd 4883 54bd b4ed 5023
00000280: 9bed bbbc d8c4 4fbd 9e91 d73c b83a f634
00000290: 7e79 4f39 c0af 9b34 4223 2bbc 867f 4738
000002a0: 89eb 8fbd f69c 223b 0ed8 633c 8884 c6bc
000002b0: 4e34 bb94 7af9 87bd 3214 6abd 58eb b53c
000002c0: 2932 c13c 230b 38bc 2200 3a3d 95ea 8eba
000002d0: f3b1 66b8 f119 a73d 7332 81bd a3a3 843c
000002e0: e0eb 503d a42e fc3c 7761 1f3d 2f49 80bd
000002f0: 809d 3dbd 7a84 873b 1458 eabc 4bc8 873a
00000300: f626 e6bc 9575 27ba 2c13 93bd ba06 6c39
00000310: 423b b73b 5be5 043e 314f 36bc 730c c1bd
00000320: 550a 02a7 a003 463b 493d 4839 8d44 963d
00000330: f71d 6dba 36c5 10b9 6eba dc39 effc 10bd
00000340: e36a a621 3d92 7cb9 043b 5b3d de33 1c3c
00000350: ff0e 48bd 5f55 28bd a762 5a3d c324 6a3c
00000360: dd38 e43c 9977 27bd 04c8 a83a 4938 74a1
00000370: e74c 193c e800 14a0 7f34 85bc b93f 03b5
00000380: 6f37 7d99 2170 ad95 840d a8b8 d778 c2bc
00000390: 62e7 84bb 4142 c03d cd9a 543b a9e2 101a
000003a0: d497 4ebd 7800 47bb fba8 613d e71e 493d
000003b0: 0b41 463d 4586 3d3d c608 1e3d 2531 7b3b
000003c0: 7efc 213b 47ad 6dbd 5df1 a9bd 89f8 1936
000003d0: 14af 8a34 7fa6 8d3d 0d70 c5bc 7e09 e335
000003e0: cca2 8fbd ca6a acbc 7be5 db38 71ad babd
000003f0: 9f5d d03d 36cc c43c e425 d4bc ba4b 373d
0.04984785 -0.032911997 -0.043126054 0.053363014 0.025845105 -0.04061445 1.8208168e-10 0.030674277
-0.0025704012 0.037272662 4.035793e-18 2.597364e-26 0.003844736 -0.0052612657 0.04025187 -3.6915186e-05
-0.05690329 0.0004337784 -0.03496024 -0.025317462 3.2685464e-05 -0.016820777 -0.0471527 -0.012580726
0.0023170584 -2.5136205e-25 0.037118737 -0.0123819625 0.014275456 -0.00024581607 0.003704139 0.037687775
-2.0891336e-23 0.092178605 -0.0021299315 0.020478856 -0.060676306 0.02186116 0.013840089 0.027590072
1.4189474e-17 -0.096972086 -0.0803542 0.018579094 -0.037558924 -0.050640073 0.004392744 0.008316993
-0.0006018452 0.032215983 0.0017666084 -1.32754185e-05 0.027193082 -0.093275025 0.013386877 0.079847656
0.033615544 0.014767132 -0.020344315 9.9690305e-21 1.8674e-08 -3.9033232e-16 1.3346047e-19 -1.8413497e-23
-5.712237e-07 -0.042844098 -0.06304808 -0.06531607 -0.033111148 0.062278885 -1.351221e-19 -0.0831902
-0.038080927 0.028406741 -0.004046755 -0.036003795 -1.15266566e-07 -0.007121641 2.4602755e-25 -0.053766
0.026587995 0.030582221 0.084561534 0.05450159 -3.2529572e-06 0.030629527 -0.03297434 0.039633673
-0.008238673 -0.06677158 -0.07211874 0.0033274428 0.008749211 0.0029721912 -2.7848193e-08 1.4824102e-10
0.00045169285 -0.06880574 -0.047362085 2.3442635e-05 -8.8895016e-05 0.0007228393 1.9249788e-08 1.027143e-08
0.02537457 0.019669244 -0.0055663735 0.035531614 -0.024347484 -0.03664676 -0.010592613 0.030610703
0.0005353876 0.03519568 -8.379558e-10 -0.01146015 -0.05569506 0.039632443 -0.00034598107 -7.747426e-07
0.06519635 0.03552827 -0.023895308 -0.054846127 -0.00041773365 0.05179306 -0.068599835 0.0716609
0.0013776656 -0.014429922 -0.002174089 0.0375742 0.044541597 0.045495056 0.016295576 -0.078134514
0.00018215746 0.056649223 -0.12323421 0.018540269 -2.8043594e-05 -0.00012953974 -1.6695143e-26 0.00060539524
-3.020295e-13 -0.06546564 0.03167083 0.08138851 -0.0037817028 -0.0003951214 0.04200303 -0.06283757
-0.057124197 0.0031812806 0.03330192 -0.08770842 -0.021716228 -0.042816777 -0.051883012 1.1326038e-17
-0.022940448 -0.050724834 0.026314553 4.5863794e-07 0.00019786318 2.8998875e-07 -0.010445418 4.7564063e-05
-0.07027347 0.0024812794 0.013906492 -0.024233118 -1.8902805e-26 -0.06639381 -0.057148166 0.022206947
0.023583489 -0.011233124 0.045410283 -0.0010903651 -5.5002e-05 0.08159245 -0.063084505 0.01619131
0.051006198 0.030783959 0.03891131 -0.06263959 -0.04629278 0.0041356655 -0.028606452 0.0010359375
-0.02809475 -0.00063880655 -0.07181391 0.0002250922 0.005591781 0.12978117 -0.011127279 -0.094262026
-1.8046725e-15 0.0030214563 0.00019096317 0.07337294 -0.00090452976 -0.00013806377 0.0004210057 -0.035397466
1.127689e-18 -0.00024087071 0.05352308 0.0095338505 -0.048842426 -0.04109704 0.05331674 0.014290991
0.027859146 -0.04088554 0.0012876992 -8.274491e-19 0.009356714 -1.2536387e-19 -0.016260384 -4.889403e-07
-1.3090988e-23 -7.005105e-26 -8.013382e-05 -0.023739262 -0.0040559033 0.09387637 0.0032440901 2.9961597e-23
-0.050437763 -0.003036527 0.055092793 0.049101736 0.048401874 0.046270628 0.038582586 0.0038328853
0.0024717147 -0.05802658 -0.082979895 2.2943443e-06 2.583189e-07 0.06916522 -0.024101282 1.691558e-06
-0.07013473 -0.021047015 0.00010485478 -0.091151126 0.10174107 0.024023157 -0.025896974 0.044749953

speed_out.weight f4 [1, 256]
00000000: 3be8 2a3d 11bf a63c 3d60 d139 1b55 f33c
00000010: 88f4 873d 62b3 f83c 5e7d 6ab7 1ca2 0d3d
00000020: a980 e69d 2d22 f43c c94d 93ba 3dd4 2cb8
00000030: 8abc 341b 14a6 553d b9f5 ba3d da51 9f94
00000040: aefa 673d 120c be38 8371 103c 22fa 703c
00000050: a1ce b539 ba53 873d 1a38 573d 9d7e 8cbc
00000060: d261 a438 0c82 ddba c0de 883d 5d99 263d
00000070: 8fe7 2d35 aeb1 88bb 89bf c3b2 a5da 813d
00000080: 660b 8c3a f2a6 e83c fe34 2c3b 7fed b83c
00000090: ca2e bdba b819 113c 0ed6 233d caa8 ca3a
000000a0: 18b2 3837 0436 8f3c e771 113d f71b f1bc
000000b0: 147b b43d 6f87 d63c 6c34 a4ba feed fb3c
000000c0: 3f5a 5c92 4ab2 5c3d 5e7a f63c a13a 6439
000000d0: f1db 803c 9e8a 003d cf37 bf3c bbfa 4e3d
000000e0: bf83 b23c b24c 823c 97b2 ab3d 9176 a03a
000000f0: 1251 f2b7 cd14 9816 30f1 00b7 80e7 7e35
00000100: c9a8 c3b2 41fb 633d a255 353d 5fd4 7cbb
00000110: 79ff b0bb 3963 c4bc 4e44 8cb8 f7f0 583d
00000120: beb9 283d 32c3 a73d 492c fabc 5f7b ea3c
00000130: 6a77 31bb a1ff 8eb4 1965 7233 70fd 823c
00000140: b5e8 213b 21a9 923c efe2 b93d f4ca 323d
00000150: 6889 a338 49ca c53d cd29 2d3c f555 b03c
00000160: 0879 8f3d 9994 8e3c 7f9c 923d 6691 00bb
00000170: dafb c53d 2717 a4b9 c42f 50b5 09f7 613a
00000180: 6b75 433c 7011 b53d bea0 9b3d b7d3 443b
00000190: a4f8 84bb 31e1 dd13 8a61 66b1 abeb 7525
000001a0: db20 01bc 4544 633b eeb3 053d fa16 eb3b
000001b0: c914 97bc 2bbc 8d3d d328 773c 81d0 a93d
000001c0: 7cd3 7a9c 671b 043d c2cf bc1a 115c ee3c
000001d0: 9cd6 7e3c c31d 83bc 4d03 6339 5a7c 66b9
000001e0: 52c4 9a3d ba4b 6d3c 9f59 993d b655 b83d
000001f0: 0163 2fb9 5a71 b43d 0e61 1b3d 9f32 2ebc
00000200: 777d 3235 58fc 943d ce4e c03d be2e b7bc
00000210: d8d6 353d c1c9 aa3d cddc c53d 6eba 8f3d
00000220: d34c 44b7 822e b83d f794 ab3d f09f a7bb
00000230: 717f 831b 6372 9c3a c3eb bb3a b23d a03d
00000240: abb5 873a 9371 103c 32a7 343c 1b70 253c
00000250: f978 543d 69c3 64a7 df41 df3a 0329 f13c
00000260: 0f9a 64bc 68d4 b1bc d1bb c03d b555 a33b
00000270: fc01 853d c14b c13c 1da4 e43c d4b7 1e90
00000280: a76f bd3d 21af f53c 1496 a83d bd41 e238
00000290: 9ac8 ef39 31ce 3cbb d6ed c93b 09b6 caba
000002a0: 939d c23c 4ad2 bf3b 8298 4c3d a907 be3d
000002b0: 88f2 6d36 c7db b6bb 766e e9ba c757 b03d
000002c0: ca16 103d d72f 4b3d 4635 813b 21e1 6998
000002d0: 6928 442d cdd5 df3c 3cde 893d 27d1 8e3d
000002e0: 3184 303a 91f2 213c ea4e eb3c 094f 3e3d
000002f0: 8998 ca3c 8c04 c63d 17dc bdbc f310 9db8
00000300: 5fd3 6abb 660a 042b 5111 2d3d 2d45 4dad
00000310: 5e33 c13d c534 7e3c 14d2 6e3d 9ddc 983b
00000320: 4c00 1622 79c2 80bb 95a7 62ba 196d aa3b
00000330: 2a7a 1436 3c68 f7b3 ce66 0038 99f1 893b
00000340: b107 1327 8322 d23c 6491 ae3d a531 a33c
00000350: 0167 943d b6ef 863c 86a2 963d 7bc2 9d3d
00000360: 45bd c13c 70e9 cd3a dd3a b6ac 37de 8834
00000370: 11cc 373d 72ec 4a95 7185 8b3d ab8d 15b9
00000380: 7e79 9838 cc1e 8898 24e6 f5b9 7920 b13a
00000390: b4ca 84ba 8b5b 8d3d a6bb 01b9 07d0 83ad
000003a0: a859 063d 1c7a 2bb9 d1b8 173d 74ec ef3c
000003b0: 5e0b 693d 1cc0 993d ec51 6c3c 030a 5938
000003c0: d93d de3c f117 df3a 6794 1f3c 0266 22a8
000003d0: 04c8 1a21 383c 173d 0f2d bb3b e549 a137
000003e0: e016 793d 9a3d bbbc 32c4 379c ddc5 cf3c
000003f0: 9e9f c23c da9b 073c 6d4e 6dbc 6f95 8b3d
0.04172538 0.02035478 0.0003993529 0.029703667 0.066384375 0.030358974 -1.3976676e-05 0.034578428
-6.1013525e-21 0.029801453 -0.0011238392 -4.1205658e-05 1.4950171e-22 0.052160338 0.09128899 -1.6087182e-26
0.05663555 9.062154e-05 0.008816126 0.014708074 0.0003467696 0.066077664 0.052543737 -0.017150218
7.83835e-05 -0.0016899719 0.06683111 0.040673602 6.4784484e-07 -0.0041715717 -2.2788088e-08 0.06340531
0.0010684549 0.028399918 0.0026276703 0.022574184 -0.00144335 0.0088562295 0.03999906 0.001546168
1.100872e-05 0.017481811 0.035509016 -0.02943228 0.08812538 0.026187627 -0.001252783 0.030753132
-6.9530997e-28 0.053880967 0.030087646 0.00021765615 0.015729876 0.031382196 0.023342041 0.050532084
0.021791337 0.015905712 0.08383673 0.0012242367 -2.88864e-05 2.4570052e-25 -7.68555e-06 9.495925e-07
-2.2777742e-08 0.055659536 0.04427112 -0.0038578731 -0.0054015485 -0.023973094 -6.688443e-05 0.052964177
0.041192763 0.081915274 -0.030538695 0.028623281 -0.0027079233 -2.6635556e-07 5.6436964e-08 0.015989989
0.0024705355 0.017902913 0.09076487 0.043650582 7.7980396e-05 0.096577235 0.010569048 0.021525363
0.07005507 0.017404841 0.071587555 -0.0019617914 0.096671775 -0.00031297767 -7.7555546e-07 0.000861988
0.01192985 0.088412166 0.075990185 0.0030033418 -0.0040579606 5.60103e-27 -3.352485e-09 2.133021e-16
-0.0078813685 0.0034678143 0.032642297 0.00717437 -0.018442528 0.06920656 0.015085417 0.08291722
-8.29914e-22 0.032252695 7.809063e-23 0.029096635 0.015554097 -0.016005402 0.00021649637 -0.00021980834
0.075569764 0.014483387 0.07487797 0.09000723 -0.00016726182 0.088106826 0.037934355 -0.010632186
6.649274e-07 0.07274693 0.09390031 -0.022361156 0.044394344 0.08339263 0.09661255 0.070179805
-1.1700397e-05 0.08993246 0.08378022 -0.0051155016 2.175449e-22 0.0011935945 0.001433723 0.078242674
0.0010353824 0.008816141 0.011026191 0.010097529 0.05187318 -3.1747288e-15 0.0017033181 0.029438501
-0.013952746 -0.021707729 0.09410823 0.0049845823 0.06494519 0.023595693 0.027910287 -3.1301622e-29
0.092498116 0.029990735 0.0823175 0.000107887645 0.00045735092 -0.0028809423 0.0061623855 -0.0015465628
0.023756778 0.005853926 0.04995013 0.09278805 3.5456924e-06 -0.0055803987 -0.0017809409 0.08610492
0.035177983 0.04960617 0.0039431183 -3.0228205e-24 1.1150283e-11 0.027323628 0.06731841 0.069734864
0.0006733565 0.0098844925 0.028724153 0.046462093 0.024730938 0.09668836 -0.023176236 -7.4895004e-05
-0.0035831553 4.691025e-13 0.042252842 -1.1668261e-11 0.09433626 0.015515511 0.058305815 0.004664971
2.0328948e-18 -0.003929433 -0.00086461875 0.0052009937 2.2124827e-06 -1.1520794e-07 3.0613322e-05 0.004209709
2.0404518e-15 0.025651222 0.08523825 0.019921133 0.07246209 0.016471725 0.07355218 0.0770311
0.023649821 0.0015709829 -5.1792863e-12 2.5493657e-07 0.044872347 -4.0980098e-26 0.06812561 -0.00014262523
7.2705545e-05 -3.5186273e-24 -0.0004690151 0.0013513706 -0.0010131211 0.06902226 -0.00012372303 -1.4985358e-11
0.032800347 -0.0001635332 0.03704149 0.029287554 0.056895606 0.07507345 0.014423829 5.1746156e-05
0.0271291 0.0017020685 0.009739972 -9.014926e-15 5.244195e-19 0.036922663 0.0057121585 1.9227105e-05
0.06081283 -0.022856522 -6.0803197e-22 0.025362903 0.023757752 0.008276904 -0.01448403 0.068156116
