generator_combined_WEIGHTSPEED_0.70_WEIGHTDISTANCE_1.00.pth (torch, 16680 bytes, 4 tensors)

hidden.weight f4 [256, 10]
0.24535917 0.2788948 -0.059359424 0.30495137 -0.05680315 0.07609371 -0.13334458 0.20787294
0.25924748 -0.21240172 0.2690507 0.04780368 0.22261152 0.032018375 0.14242199 -0.054243598
0.22682257 0.028349977 -0.12847848 0.06199903 -0.16119665 -0.053621303 -0.1450661 0.19198309
-0.24090616 -0.13767658 -0.0702438 -0.17059435 0.0131798 -0.29259768 0.27459544 -0.26168305
0.25019744 0.058453295 -0.09657342 0.20010452 0.07047686 0.27822113 0.021299737 -0.08104313
0.10151397 -0.06665888 0.15235597 0.30242097 0.20158257 -0.11849809 0.2041267 0.07966251
0.14132166 -0.1732008 -0.3252012 -0.13545346 -0.25570622 0.24496894 0.07745344 0.116447724
0.084517725 -0.022177884 0.22779886 -0.20509486 0.004960742 -0.19622998 0.07840003 -0.08969666
0.07779376 -0.047231283 0.24259798 -0.16788149 -0.16904746 -0.16905878 0.2907956 0.122276954
0.31891453 -0.2449594 -0.30003774 -0.23362787 -0.19384338 0.14849877 0.09435925 0.24312383
-0.14382951 -0.19596851 0.14829105 -0.108492404 0.17236802 -0.05621468 0.16136633 -0.22604209
-0.14011833 0.0773116 0.051080532 -0.071558855 0.19835213 0.22377686 -0.21477589 -0.1548374
0.31427035 -0.08077456 -0.09294296 -0.28622857 -0.1911803 0.06534598 -0.023903413 -0.2099307
-3.0362238e-05 -0.19640692 -0.24860592 -0.1546296 -0.25707117 -0.18178162 0.3112621 0.052818086
0.094881274 -0.29583782 -0.20125194 -0.098121375 0.036950868 -0.2907792 -0.116965674 -0.16975516
1.0425585e-09 -0.09840133 -0.0064487867 -0.1946801 -0.19744672 -0.16494797 -0.0890424 -0.22993028
0.24546511 -0.044179622 0.29151097 0.11774064 -0.24840376 0.2391953 -0.06799634 -0.100988016
-0.2836019 -0.33707395 0.07206096 -0.051455934 0.14055224 -0.24087642 0.25304314 -0.21297213
-0.036693003 0.08493601 0.18416233 0.27773994 0.2684787 -0.23112765 0.060687 -0.11664768
-0.01736714 -0.21704996 0.26833078 -0.2124593 0.14951174 0.09191179 0.08360307 -0.15146486
0.30544 0.08623916 0.055646658 -0.2620806 0.14458813 -0.033651162 -0.16273198 0.25224498
0.052927382 -0.15569729 -0.14058767 -0.001938819 0.15705064 -0.061892044 -0.16090235 -0.08908802
-0.21660313 0.09354212 0.22511756 -0.27799198 0.06520891 0.14931445 0.043108728 -0.12722026
0.15070684 0.15116851 0.100960754 -0.07436766 -0.06531713 0.017677896 -0.069653004 -0.10692659
0.18906015 0.25776845 -0.0443871 -0.08498119 0.025420923 0.0030121056 0.057195835 0.06967277
-0.2665035 -0.10661186 0.27281043 0.13277704 -0.028452646 -0.20375437 -0.17394494 -0.2635751
-0.08386659 0.08760202 0.22028378 0.16284823 -0.26313132 -0.17254573 -0.0339468 0.32321212
0.023633223 -0.10547288 0.11192339 -0.10182845 -0.18667887 0.24660407 -0.12953709 -0.047928438
-0.30349964 0.22336219 0.2217459 0.09591921 -0.20118241 -0.29244444 -0.2722728 0.2199448
0.13572341 0.2489836 0.14911485 0.06227928 0.009786625 -0.22648373 -0.25121722 -0.27606237
0.11011457 -0.13580711 -0.045040395 -0.16245735 -0.0391802 -0.2029518 -0.18703781 0.0857212
-0.07490736 0.17565528 -0.08230303 -0.21233831 -0.03740597 -0.13384724 -0.077645145 -0.28132668
00000000: 6f3f 7b3e 4dcb 8e3e de22 73bd 9622 9c3e
00000010: 6baa 68bd 05d7 9b3d 7b8b 08be a5dc 543e
00000020: 16bc 843e d67f 59be 03c1 893e cbcd 433d
00000030: 46f4 633e b325 033d 12d7 113e 892e 5ebd
00000040: 2d44 683e 363e e83c dd8f 03be b2f2 7d3d
00000050: bc10 25be 03a2 5bbd 358c 14be 3797 443e
00000060: 1bb0 76be 17fb 0cbe fbdb 8fbd 49b0 2ebe
00000070: 16f0 573c 5dcf 95be c697 8c3e 52fb 85be
00000080: e119 803e b96c 6f3d 49c8 c5bd 33e8 4c3e
00000090: 2c56 903d 0073 8e3e c97c ae3c f1f9 a5bd
000000a0: 8ee6 cf3d 7384 88bd 3403 1c3e ecd6 9a3e
000000b0: a96b 4e3e 20af f2bd 9706 513e 1926 a33d
000000c0: a0b6 103e 8d5b 31be c680 a6be 50b4 0abe
000000d0: edeb 82be 23d9 7a3e e99f 9e3d 257c ee3d
000000e0: a117 ad3d 65ae b5bc 1b44 693e 6304 52be
000000f0: b88d a23b 83f0 48be 3290 a03d e2b2 b7bd
00000100: 5652 9f3d 9775 41bd 9b6b 783e 20e9 2bbe
00000110: c71a 2dbe bf1d 2dbe 29e3 943e 576c fa3d
00000120: c448 a33e a3d6 7abe 8c9e 99be 253c 6fbe
00000130: e17e 46be 1010 183e 6c3f c13d 74f5 783e
00000140: 0b48 13be f8ab 48be 9cd9 173e 4431 debd
00000150: 3e81 303e 5d41 66bd 373d 253e 9477 67be
00000160: 2e7b 0fbe 8b55 9e3d d239 513d 738d 92bd
00000170: d21c 4b3e c325 653e 36ee 5bbe b28d 1ebe
00000180: 0be8 a03e 226d a5bd e158 bebd 8d8c 92be
00000190: c5c4 43be 1dd4 853d 17d1 c3bc 13f8 56be
000001a0: 69b2 feb7 e51e 49be 8d92 7ebe 3957 1ebe
000001b0: d59e 83be f624 3abe bf5d 9f3e c757 583d
000001c0: 1d51 c23d 0e78 97be fd14 4ebe dcf3 c8bd
000001d0: cb59 173d 03e1 94be b38b efbd 4cd4 2dbe
000001e0: c449 8f30 a386 c9bd 5850 d3bb 385a 47be
000001f0: 792f 4abe 1fe8 28be dd5b b6bd d872 6bbe
00000200: 355b 7b3e b1f5 34bd ed40 953e 0122 f13d
00000210: 8e5d 7ebe 9def 743e aa41 8bbd ced2 cebd
00000220: 4534 91be f594 acbe b294 933d 75c3 52bd
00000230: edec 0f3e 4fa8 76be df8e 813e 5e15 5abe
00000240: 674b 16bd eef2 ad3d 0d95 3c3e ee33 8e3e
00000250: 0a76 893e baac 6cbe ef92 783d fbe4 eebd
00000260: 8845 8ebc 5842 5ebe a762 893e ee8e 59be
00000270: 9b19 193e 403c bc3d 1638 ab3d 9b19 1bbe
00000280: a262 9c3e 289e b03d c0ed 633d 6e2f 86be
00000290: e90e 143e cdd5 09bd 36a3 26be 4126 813e
000002a0: 62ca 583d 1c6f 1fbe 37f6 0fbe f81f feba
000002b0: e2d1 203e 8382 7dbd 96c3 24be c873 b6bd
000002c0: 36cd 5dbe 0393 bf3d 3885 663e f754 8ebe
000002d0: 408c 853d e3e5 183e c792 303d 0746 02be
000002e0: e552 1a3e ebcb 1a3e 83c4 ce3d 124e 98bd
000002f0: fdc4 85bd 3cd1 903c 3ca6 8ebd 54fc dabd
00000300: fc98 413e 3afa 833e 3fcf 35bd 9e0a aebd
00000310: 8a3f d03c bf66 453b 2e46 6a3d 99b0 8e3d
00000320: 2673 88be 5257 dabd cfad 8b3e b4f6 073e
00000330: 8615 e9bc fca4 50be 9f1e 32be 51f3 86be
00000340: 3fc2 abbd b068 b33d 1292 613e b0c1 263e
00000350: 26b9 86be d4af 30be cd0b 0bbd 0f7c a53e
00000360: 769a c13c 2a02 d8bd 1738 e53d 6f8b d0bd
00000370: bf28 3fbe c785 7c3e 5fa5 04be 9c50 44bd
00000380: 4e64 9bbe 0fb9 643e 5b11 633e 4a71 c43d
00000390: c302 4ebe 47bb 95be 5767 8bbe 3639 613e
000003a0: 14fb 0a3e 8ff5 7e3e 90b1 183e 8f18 7f3d
000003b0: 1558 203c 5aeb 67be 8b9f 80be 0c58 8dbe
000003c0: bf83 e13d 0511 0bbe 477c 38bd 385b 26be
000003d0: 6b7b 20bd 99d2 4fbe d786 3fbe 998e af3d
000003e0: 0869 99bd fade 333e 7e8e a8bd 376f 59be
000003f0: 0137 19bd 400f 09be 6b04 9fbd 0d0a 90be

hidden.bias f4 [256]
-0.14282946 0.20956591 0.19277419 0.057308294 -0.12631975 0.0536239 1.2046592e-08 0.30569595
0.028809143 0.033092186 0.008065958 0.16125457 -5.4647558e-08 0.29025623 0.18337762 -0.21930344
0.016782938 -0.24872994 -0.25665036 0.048626605 0.08016502 -0.010793707 0.31636143 -0.18569958
-0.11317355 -0.03243153 0.020364637 -0.025190517 0.3066984 -0.11419949 -0.14592549 0.04630801
0.26028657 0.094962105 0.18798305 0.055784646 0.2934456 0.17658256 0.24681431 -0.050815973
-0.24212539 -0.14053686 0.1253875 0.20538786 -0.10440869 0.24390106 0.03793855 0.020493051
0.04199317 -0.03643993 0.3035611 0.0012860823 0.18464094 -0.24721606 -0.14127412 0.051120803
0.27024323 0.13961121 0.079182394 -0.291406 -0.006125151 -0.1891479 -0.2503298 0.07204455
-0.18050243 0.30472115 -0.1523778 0.08654811 0.16993628 -0.26045617 0.16112809 -0.028618403
0.17592832 0.32500836 -0.14064583 -0.14882454 0.23638663 0.059039544 -0.0063912515 0.22516827
-0.13334212 -0.02118488 0.23551273 0.14127491 -0.18495475 0.10423575 -0.22145365 -0.17091161
0.2227272 -0.05515093 -0.14364377 0.008267647 0.09679884 -0.17706722 -0.19364913 -0.2865312
0.08647684 -0.1843869 0.043058854 -0.051548284 -0.18717806 -0.08176709 -0.22342815 -0.14789829
0.0051141274 -0.24867985 -0.26099747 0.22383726 0.019113062 -0.1203261 -0.023516081 0.25171062
-0.24413726 -0.14613442 -0.2090465 -0.020604892 -0.023769012 -0.24010713 0.24405067 -0.22318491
0.31301945 -0.21005642 -0.058267374 0.07741419 -0.1211649 0.31051016 -0.21492708 -0.03140155
-0.21255736 0.10685789 0.28833488 0.27792925 0.06283549 -0.14191885 0.32570165 0.043615185
0.20045844 -0.14577162 -0.12734143 -0.24283215 0.27640912 0.07737135 -0.2067518 0.046269413
-0.11626335 0.006251053 0.12766586 -0.14423725 0.078992315 -0.18008468 0.048805308 -0.3082999
0.034557573 0.2977513 0.30975217 0.10071298 0.25229466 0.29696316 0.07630016 0.12991291
0.06357917 0.2732123 0.2902333 -0.12928376 0.006112093 -0.13986413 0.099493966 -0.28669626
0.10224728 -0.095235206 0.13385408 0.11715139 -0.13731848 0.14848764 0.11925345 -0.2498515
0.34260756 0.29203773 0.1853172 -0.015052135 0.092805915 -0.15158132 -0.0864962 0.16891243
0.12825109 0.11477565 -0.28187698 0.27263927 -0.11273343 0.29218864 0.244299 0.106035724
0.3037611 0.20330548 0.19615912 -0.08818732 0.3120943 0.07044215 0.20656808 -0.084897146
0.2201009 0.26804748 -0.22265814 0.24301893 -0.18939658 -0.19810277 -0.24458563 0.07652995
-0.24682435 -0.09226738 -0.13782097 0.0748978 -0.29252082 -0.118062876 0.02044545 0.04851007
-0.15505493 0.10550033 -0.18903828 -0.24812444 -0.023934312 -0.17255986 0.21862581 -0.19653887
-0.010203193 0.11199938 -0.25723693 0.23034467 -0.12428114 -0.079774015 -0.17387918 -0.124741845
-0.11401442 -0.2617027 0.12529139 0.0045151515 0.3272118 0.23320259 0.2697672 0.115423255
0.19479299 0.2809135 0.24755557 -0.22333625 -0.052153807 -0.2837107 -0.0026413372 -0.092461206
0.2960161 0.03382621 0.005443157 -0.2448919 -0.24519403 0.06833711 -0.16139847 -0.12367271
00000000: e341 12be 7298 563e 9966 453e 1abc 6a3d
00000010: f759 01be bca4 5b3d 79f5 4e32 2e84 9c3e
00000020: 2701 ec3c ac8b 073d 1427 043c eb1f 253e
00000030: a0b5 6ab3 779c 943e 58c7 3b3e 1591 60be
00000040: 5f7c 893c 10b3 7ebe ad67 83be b12c 473d
00000050: 8f2d a43d 17d8 30bc 20fa a13e 0828 3ebe
00000060: 89c7 e7bd edd6 04bd bdd3 a63c 585c cebc
00000070: 9307 9d3e 6ce1 e9bd 7e6d 15be 78ad 3d3d
00000080: 4844 853e 7e7b c23d a17e 403e 717e 643d
00000090: 803e 963e 0fd2 343e e4bc 7c3e 6924 50bd
000000a0: b8ef 77be e5e8 0fbe 9565 003e 3251 523e
000000b0: 39d4 d5bd 33c1 793e 7465 1b3d 0be1 a73c
000000c0: 0801 2c3d 0942 15bd 5c6c 9b3e c391 a83a
000000d0: 8412 3d3e 3526 7dbe 2aaa 10be 0c64 513d
000000e0: 525d 8a3e 3ef6 0e3e 612a a23d 2b33 95be
000000f0: 7eb5 c8bb fdaf 41be 3a2b 80be 188c 933d
00000100: a1d5 38be 6904 9c3e ed08 1cbe 2340 b13d
00000110: c703 2e3e 835a 85be c3fe 243e 2471 eabc
00000120: 8e26 343e 7f67 a63e 7605 10be 7665 18be
00000130: 560f 723e 73d3 713d b46d d1bb 8392 663e
00000140: d68a 08be ea8b adbc 402a 713e 5faa 103e
00000150: c764 3dbe 8e79 d53d bfc4 62be 7403 2fbe
00000160: 9912 643e f1e5 61bd 5a17 13be 0675 073c
00000170: 783e c63d 1c51 35be f54b 46be 38b4 92be
00000180: c51a b13d ebcf 3cbe 7b5e 303d 4b24 53bd
00000190: 9bab 3fbe 8175 a7bd 59ca 64be a672 17be
000001a0: 6994 a73b eea5 7ebe 76a1 85be 9835 653e
000001b0: ff92 9c3c 886d f6bd cca4 c0bc 37e0 803e
000001c0: 1eff 79be 43a4 15be 4910 56be 97cb a8bc
000001d0: 3bb7 c2bc a5de 75be 6be8 793e 968a 64be
000001e0: 1644 a03e 0819 57be c5a9 6ebd 558b 9e3d
000001f0: 4e25 f8bd 30fb 9e3e d815 5cbe e99e 00bd
00000200: a3a8 59be 4fd8 da3d a1a0 933e be4c 8e3e
00000210: e5af 803d 2d53 11be 5ec2 a63e d6a5 323d
00000220: fa44 4d3e 2845 15be cb65 02be fea8 78be
00000230: 7f85 8d3e df74 9e3d beb6 53be ff84 3d3d
00000240: 7b1b eebd a2d5 cc3b d7ba 023e eeb2 13be
00000250: b9c6 a13d 1e68 38be 13e8 473d 7cd9 9dbe
00000260: 3e8c 0d3d dc72 983e d697 9e3e 9b42 ce3d
00000270: c42c 813e 8e0b 983e 4243 9c3d e407 053e
00000280: cc35 823d 7ce2 8b3e 7699 943e f662 04be
00000290: f447 c83b 8b38 0fbe 7ec3 cb3d dac9 92be
000002a0: 0667 d13d ad0a c3bd 0b11 093e 11ed ef3d
000002b0: 379d 0cbe 250d 183e 273b f43d 12d9 7fbe
000002c0: 426a af3e f885 953e cbc3 3d3e 3b9d 76bc
000002d0: 0711 be3d 2238 1bbe eb24 b1bd 61f7 2c3e
000002e0: 4154 033e 7f0f eb3d 2e52 90be 6097 8b3e
000002f0: c9e0 e6bd c099 953e 8429 7a3e 4229 d93d
00000300: 9386 9b3e 502f 503e f0dd 483e 8e9b b4bd
00000310: d3ca 9f3e f943 903d 9586 533e 8ede adbd
00000320: 2162 613e 853d 893e 7f00 64be f4d9 783e
00000330: 2df1 41be 74db 4abe a874 7abe bcbb 9c3d
00000340: 86bf 7cbe aef6 bcbd f120 0dbe 0564 993d
00000350: 4ac5 95be f3ca f1bd 377d a73c 7fb2 463d
00000360: b8c6 1ebe 8f10 d83d 4093 41be 5514 7ebe
00000370: e411 c4bc 88b3 30be 72df 5f3e 7c41 49be
00000380: 4b2b 27bc ee5f e53d 8fb4 83be 79df 6b3e
00000390: 1c87 febd 8f60 a3bd 620d 32be a778 ffbd
000003a0: 6480 e9bd e5fd 85be 634c 003e d6f3 933b
000003b0: 4e88 a73e a9cc 6e3e ed1e 8a3e 0763 ec3d
000003c0: d077 473e e5d3 8f3e 357f 7d3e 42b2 64be
000003d0: 3b9f 55bd 8742 91be 491a 2dbb 4d5c bdbd
000003e0: 6c8f 973e 5a8d 0a3d 835c b23b f1c4 7abe
000003f0: 2514 7bbe 54f4 8b3d a445 25be 1e48 fdbd

theta_out.weight f4 [1, 256]
0.05489622 -0.01775617 -0.015712053 0.06855066 0.044752013 -0.01953838 0.0042711287 0.025599644
-0.037132457 0.032406483 0.036330447 -0.020032091 0.04141698 -0.061955296 0.05504046 -0.016046789
-0.03423909 0.024755621 -0.022563104 0.009715713 0.01577917 -0.07353918 -0.0344168 0.0016982076
0.036147952 1.6658126e-06 0.031766586 0.0031762107 0.045037415 -0.02217319 0.040986262 0.04807855
-0.013207156 0.06818641 -0.02639172 0.030273784 -0.055614345 0.01320839 0.0019254354 0.00921893
0.0015598079 -0.030438935 -0.061797097 -0.01662735 0.00701397 -0.034238897 0.060820006 -0.012010774
-0.014364589 0.048192278 0.008510955 -0.013770443 0.048915744 -0.021167679 0.045724068 0.0804675
0.021847578 0.021397062 -0.033608094 0.036331084 0.04615868 0.0020244482 -0.00085913314 -0.023132136
-0.009170489 -0.05251976 -0.039231773 -0.06350644 -0.059274238 0.07940498 0.03045399 -0.07727271
-0.047047894 -0.0054838494 -0.042594492 -0.0070732757 0.0009757738 -0.039729837 0.03215846 -0.014184799
0.022460505 0.060719322 0.052488748 -0.028888756 -0.011363248 0.022566097 -0.023618339 0.04628003
0.0031704865 -0.03927428 -0.071985334 0.046368696 0.058162566 0.03866146 -0.0066248327 0.0042053466
0.029415844 -0.02024979 -0.06358398 0.059621792 -0.018504648 0.027521113 0.0063887727 0.006015816
0.06471336 0.018892575 0.052480604 0.027723936 -0.017970221 -0.015580796 0.007829563 0.05891031
0.02583806 0.069260806 -0.0048207985 0.01246152 -0.058836114 0.061481837 -0.05487339 -0.009506076
0.072158165 0.036494616 -0.011643354 -0.038542632 -0.025119131 0.07208469 -0.04555129 0.07455072
0.031811915 -0.015023484 -0.00081087794 0.0504293 0.057083435 0.08168656 0.063557774 -0.022000322
0.030633813 0.05179379 -0.026441677 0.013201749 -0.010471605 -0.069025435 0.028594676 0.011366192
-0.0028975422 -0.03506999 0.055992823 0.09033627 0.008695944 -0.02429885 0.013328151 -0.03497244
-0.043739803 -0.03257219 0.05335972 -0.06860506 0.0028802576 -0.026639884 -0.044185743 -0.03527477
0.022482377 -0.028181199 0.0312946 0.0089396145 0.066984095 0.0084847165 0.029986387 0.01670092
-0.05866929 0.010759983 0.047547597 -0.028538788 0.027206745 -0.048006028 -0.036282483 0.00932981
0.03839116 -0.034791432 0.039868463 -0.030135762 -0.01709475 0.025268162 -0.082037814 0.028977528
0.06850834 0.026752999 0.005997441 -0.064312376 1.0772322e-05 -0.012165795 -0.037394952 0.04201972
-0.034929596 -0.019522427 -0.07077238 0.02181155 0.02530697 0.05615991 -0.004200166 -0.052561782
0.03269873 0.08353528 0.021161053 0.00076621707 -0.028898768 -0.019964922 0.024607848 -0.023547554
0.0012055706 0.021651609 0.045009643 0.023680786 -0.061461188 -0.05575537 0.03530367 0.03020075
0.020950895 -0.021150075 0.03131237 -0.0011354258 0.0068461997 0.017476471 -0.0037452579 -0.0090059955
-5.7162288e-05 -1.4724732e-07 -0.0181849 0.0020501094 -0.04204869 0.022443071 0.039512668 0.031967573
-0.01428193 -0.038810972 0.021786276 0.0717235 0.07302799 -0.013826445 0.038108453 0.08144726
0.036626812 -0.015124068 -0.06260036 0.010864169 0.008375431 0.07934867 -0.024707077 0.010454904
0.0018129172 0.0040758247 0.058306597 -0.04326333 0.025424153 0.053284124 -0.057706147 0.055482622
00000000: dcda 603d 6375 91bc 90b6 80bc 4a64 8c3d
00000010: e34d 373d f40e a0bc d3f4 8b3b 58b6 d13c
00000020: 3418 18bd a9bc 043d 3ccf 143d 571a a4bc
00000030: daa4 293d d6c4 7dbd 1b72 613d 8e74 83bc
00000040: 4a3e 0cbd 4dcc ca3c 42d6 b8bc a72e 1f3c
00000050: 5143 813c b69b 96bd a1f8 0cbd 6496 de3a
00000060: e00f 143d e394 df35 ae1d 023d f927 503b
00000070: 2779 383d 8da4 b5bc 36e1 273d 03ee 443d
00000080: d462 58bc 51a5 8b3d 7333 d8bc ba00 f83c
00000090: decb 63bd 0168 583c e45e fc3a ff0a 173c
000000a0: 7872 cc3a 135b f9bc f41e 7dbd 1536 88bc
000000b0: 72d5 e53b 163e 0cbd 661e 793d d6c8 44bc
000000c0: 7459 6bbc 4465 453d 8871 0b3c 6d9d 61bc
000000d0: e05b 483d d767 adbc 2949 3b3d 25cc a43d
000000e0: b1f9 b23c e448 af3c a4a8 09bd e7cf 143d
000000f0: e210 3d3d 9bac 043b 7337 61ba 9b7f bdbc
00000100: d23f 16bc f61e 57bd 7fb1 20bd aa0f 82bd
00000110: 8bc9 72bd 149f a23d a57a f93c 2841 9ebd
00000120: 4bb5 40bd ddb1 b3bb 9077 2ebd f0c6 e7bb
00000130: 12cb 7f3a c1bb 22bd 97b8 033d 5c67 68bc
00000140: 18ff b73c d3b4 783d 71fe 563d 1da8 ecbc
00000150: eb2c 3abc 89dc b83c 3f7b c1bc 2190 3d3d
00000160: f0c7 4f3b 11de 20bd 0c6d 93bd 1aed 3d3d
00000170: df3b 6e3d 7b5b 1e3d 2015 d9bb 01cd 893b
00000180: 7ff9 f03c e3e2 a5bc 5138 82bd fb35 743d
00000190: 0f97 97bc f573 e13c e958 d13b 5220 c53b
000001a0: 7088 843d 9ac4 9a3c e7f5 563d 4f1d e33c
000001b0: 4936 93bc 9846 7fbc 9147 003c f04b 713d
000001c0: 57aa d33c 9cd8 8d3d caf7 9dbb 672b 4c3c
000001d0: 23fe 70bd 61d4 7b3d ebc2 60bd 5fbf 1bbc
000001e0: a9c7 933d 617b 153d c4c3 3ebc e1de 1dbd
000001f0: a3c6 cdbc 23a1 933d fd93 3abd 0cae 983d
00000200: 364d 023d 0f25 76bc 1991 54ba f48e 4e3d
00000210: 52d0 693d 484b a73d 942a 823d 053a b4bc
00000220: c3f3 fa3c ba25 543d 379c d8bc 264c 583c
00000230: 1891 2bbc 355d 8dbd 623f ea3c 4439 3a3c
00000240: b1e4 3dbb 8da5 0fbd bb58 653d 3902 b93d
00000250: 6f79 0e3c 620e c7bc 515e 5a3c 433f 0fbd
00000260: 8228 33bd 6b6a 05bd b98f 5a3d cf80 8cbd
00000270: b4c2 3c3b e33b dabc 1cfc 34bd 477c 10bd
00000280: f62c b83c 42dc e6bc c42e 003d 7677 123c
00000290: f52e 893d 7b03 0b3c 03a6 f53c 5ed0 883c
000002a0: 364f 70bd a44a 303c 45c1 423d 2dca e9bc
000002b0: aee0 de3c f8a1 44bd f19c 14bd 0fdc 183c
000002c0: 0d40 1d3d 7681 0ebd 1d4d 233d 46df f6bc
000002d0: 4a0a 8cbc 2dff ce3c 7103 a8bd 4862 ed3c
000002e0: 1a4e 8c3d 1b29 db3c 2e86 c43b 35b6 83bd
000002f0: c5ba 3437 0b53 47bc 732b 19bd df1c 2c3d
00000300: 5612 0fbd 7fed 9fbc 1cf1 90bd 23ae b23c
00000310: 9050 cf3c ef07 663d 8ca1 89bb 064b 57bd
00000320: 1aef 053d 8b14 ab3d f259 ad3c f5db 483a
00000330: 1cbd ecbc 7a8d a3bc 6696 c93c cde6 c0bc
00000340: 3d04 9e3a b75e b13c 085c 383d 35fe c13c
00000350: babe 7bbd be5f 64bd 959a 103d 9067 f73c
00000360: 36a1 ab3c ec42 adbc 6641 003d 91d2 94ba
00000370: 1656 e03b d12a 8f3c 0073 75bb e28d 13bc
00000380: 8ac1 6fb8 091b 1eb4 80f8 94bc 215b 063b
00000390: 3f3b 2cbd 88da b73c 09d8 213d 6ef0 023d
000003a0: c2fe 69bc 41f8 1ebd 2279 b23c c5e3 923d
000003b0: b38f 953d 5088 62bc 9c17 1c3d d2cd a63d
000003c0: ff05 163d f0ca 77bc 9e34 80bd a1ff 313c
000003d0: 1b39 093c 8e81 a23d 7f66 cabc 0c4b 2b3c
000003e0: 689f ed3a 7f8e 853b e6d2 6e3d e434 31bd
000003f0: 5046 d03c 7440 5a3d 485d 6cbd bf41 633d

speed_out.weight f4 [1, 256]
0.024424221 0.0004139569 -0.04551214 0.0122317895 0.051748455 0.008607531 -0.013872864 0.019216737
0.00046745504 0.00087135925 -0.033902153 -0.017899144 -0.00020686114 0.040691014 0.07509969 2.957664e-08
0.04007251 0.018564878 -0.013946167 -0.0037470812 0.059627146 0.064181924 0.032911133 -0.03042568
0.018117962 -0.03340698 0.05221833 0.027417531 0.039935213 -0.04238747 -0.006495034 0.044973932
0.06741883 5.8754118e-05 0.07437134 0.0033708152 -0.014142539 -0.011065663 0.023189198 0.0029517044
0.0134075275 -0.017274292 0.005497244 -0.044937115 0.0708339 0.0032462988 -0.035320077 0.01537068
0.022942161 0.0364241 0.011951097 0.021676071 -0.004427094 -0.004120258 0.0068891235 0.029801777
0.06750917 0.0053501017 0.06953853 0.0704382 -0.016621063 -4.8313603e-07 -0.012750538 0.051510718
-0.0064947293 0.037491698 1.3750255e-07 -0.023543883 -0.024710892 -0.04336069 -0.018701311 0.03640479
0.022076882 0.06704272 -0.03882442 0.006795353 -0.04028891 0.019455293 0.051865425 -0.040563773
0.036826946 -0.0019781739 0.073223755 0.008245895 0.018102394 0.079222545 -0.0071020536 0.0014316646
0.051209006 -0.020419512 0.055738907 -0.021964876 0.0789554 -0.023047999 -0.009507267 0.028593395
-0.0062716887 0.07440005 0.06408027 0.07732836 -0.042054746 -8.69427e-09 -0.00542968 0.0018292016
-0.027638506 0.020593464 0.020533051 -0.012134301 -0.04737886 0.05301043 -0.00482459 0.07125588
0.0003971165 0.03943728 -0.00010789159 0.0087495055 -0.0033620694 -0.03349305 0.05778872 -0.021715622
0.055638857 -6.462317e-05 0.05130632 0.07200518 -0.02065941 0.07414429 0.0202996 -0.031102981
0.009335498 0.053749952 0.074044414 -0.042395428 0.0791276 0.07045064 0.08063197 0.05609526
-0.014849355 0.06663283 0.038690623 -0.008012242 0.0019801245 0.070146926 0.07164745 0.05959059
0.029784594 -0.016336972 0.008201369 0.0013914778 0.050695214 0.0021907666 -0.03462904 0.0108411135
-0.033844035 -0.04244019 0.075215444 -0.014130841 0.045817625 0.0027160086 0.00021869053 0.01880173
0.07156692 0.0072228736 0.0707818 0.019125463 0.06265718 -0.038267646 -0.013027071 -0.032698743
0.00492842 0.0042890036 0.03136017 0.073924005 0.050140392 -0.026625186 -0.021693561 0.066048406
0.026047798 0.037159428 -0.016490689 -1.7550681e-06 0.003515721 -0.023266401 0.062045254 0.050334904
-0.020200055 -0.0073010055 -0.001732133 0.027515376 -0.007237109 0.07748895 -0.04339953 -0.023815382
-0.024522448 0.037420176 0.027417304 -0.0035258504 0.07137563 -0.03888006 0.04048437 -0.023943165
-0.0016217447 -0.04455234 -0.028612541 -0.037110217 0.010814146 -0.007667997 0.015588757 -0.017111594
-0.0019862708 0.031439926 0.074353546 0.00050927803 0.057492368 0.045228604 0.057928815 0.059938766
0.0359363 -0.0032417944 -0.0033541152 0.008363116 0.04401938 0.020020228 0.04937949 -0.020079905
0.01789291 -2.458425e-06 -0.025148565 -0.013330969 -0.029639103 0.029351356 -0.019584583 -0.004262641
0.016684117 -0.020575454 0.019989118 0.011015637 0.038986817 0.063660264 -0.02045302 0.05447926
0.025718791 -0.018955542 -0.009987923 0.002374786 0.0009899347 0.018934686 -0.014432288 0.014534121
0.027796997 -0.04524034 0.004142054 -0.0061656935 -0.0069479314 -0.013474108 -0.03305333 0.082926914
00000000: 4e15 c83c 5b08 d939 f06a 3abd d867 483c
00000010: 30f6 533d 9a06 0d3c 024b 63bc 6b6c 9d3c
00000020: c114 f539 ee6b 643a fcdc 0abd 3aa1 92bc
00000030: dde8 58b9 9fab 263d decd 993d b80f fe32
00000040: 1223 243d 5f15 983c 777e 64bc 9791 75bb
00000050: 983b 743d d071 833d d3cd 063d 473f f9bc
00000060: 1f6c 943c c2d5 08bd e3e2 553d bb9a e03c
00000070: 1b93 233d 7c9e 2dbd 4bd4 d4bb 9636 383d
00000080: e212 8a3d c16e 7638 0050 983d e5e8 5c3b
00000090: 1cb6 67bc c14c 35bc 46f7 bd3c 6271 413b
000000a0: 3fab 5b3c d182 8dbc 3a22 b43b fb0f 38bd
000000b0: 5d11 913d dbbf 543b c9ab 10bd 4ed5 7b3c
000000c0: 33f1 bb3c 7031 153d 89ce 433c 0492 b13c
000000d0: 2811 91bb 3b03 87bb 28be e13b db22 f43c
000000e0: 3f42 8a3d e84f af3b 386a 8e3d e741 903d
000000f0: e528 88bc dbb0 01b5 a2e7 50bc e7fc 523d
00000100: bdd1 d4bb e590 193d 6aa4 1334 1adf c0bc
00000110: 7f6e cabc fb9a 31bd 7e33 99bc 301d 153d
00000120: 94da b43c b24d 893d 5b06 1fbd 8dab de3b
00000130: fc05 25bd b560 9f3c d770 543d 3326 26bd
00000140: dad7 163d 40a4 01bb 56f6 953d ca19 073c
00000150: 794b 943c 6e3f a23d 58b8 e8bb b1a6 bb3a
00000160: 89c0 513d d246 a7bc 7b4e 643d afef b3bc
00000170: 5eb3 a13d 28cf bcbc 5ec4 1bbc b23c ea3c
00000180: bd82 cdbb 0e5f 983d 843c 833d 555e 9e3d
00000190: 9941 2cbd ce5d 15b2 75eb b1bb d2c1 ef3a
000001a0: 266a e2bc a0b3 a83c ee34 a83c f2ce 46bc
000001b0: 5610 42bd 7721 593d 9817 9ebb 9aee 913d
000001c0: 1334 d039 fc88 213d db43 e2b8 165a 0f3c
000001d0: 2a56 5cbb 0230 09bd ddb3 6c3d f6e4 b1bc
000001e0: 92e5 633d 4d86 87b8 9326 523d 7477 933d
000001f0: ec3d a9bc f6d8 973d 594b a63c aecb febc
00000200: ebf3 183c e928 5c3d 99a4 973d d4a6 2dbd
00000210: a70d a23d 6d48 903d 6022 a53d 25c4 653d
00000220: b64a 73bc cb76 883d 0f7a 1e3d c745 03bc
00000230: fac4 013b 31a9 8f3d e6bb 923d 4315 743d
00000240: d2fe f33c 1dd5 85bc 095f 063c 3f62 b63a
00000250: c9a5 4f3d f792 0f3b 2ed7 0dbd ed9e 313c
00000260: 0ba0 0abd c4d5 2dbd 8e0a 9a3d 0b85 67bc
00000270: 43ab 3b3d 10ff 313b 4b50 6539 1606 9a3c
00000280: ad91 923d dbad ec3b 0cf6 903d 01ad 9c3c
00000290: 6852 803d 89be 1cbd 7f6f 55bc 1eef 05bd
000002a0: 957e a13b c58a 8c3b 8673 003d 7865 973d
000002b0: 0360 4d3d 101d dabc b2b6 b1bc 6344 873d
000002c0: 3162 d53c 7c34 183d 7b17 87bc ae8f ebb5
000002d0: 0368 663b 2e99 bebc 2a23 7e3d f92b 4e3d
000002e0: 967a a5bc 463d efbb bd08 e3ba ed67 e13c
000002f0: 4525 edbb 87b2 9e3d b5c3 31bd 7a18 c3bc
00000300: 4de3 c8bc e645 193d 419a e03c f411 67bb
00000310: 632d 923d b340 1fbd f0d2 253d 7524 c4bc
00000320: b990 d4ba 847c 36bd d964 eabc e200 18bd
00000330: d12d 313c d243 fbbb fc67 7f3c 9d2d 8cbc
00000340: 182c 02bb 27c7 003d ac46 983d 1281 053a
00000350: 1e7d 6b3d a141 393d c446 6d3d 5a82 753d
00000360: f131 133d 4974 54bb b7d0 5bbb 7305 093c
00000370: aa4d 343d 7601 a43c 2642 4a3d 9d7e a4bc
00000380: 2794 923c 6bfb 24b6 5d04 cebc 236a 5abc
00000390: b4cd f2bc 4172 f03c d96f a0bc a0ad 8bbb
000003a0: 21ad 883c db8d a8bc 38c0 a33c ee7a 343c
000003b0: a4b0 1f3d 5060 823d 188d a7bc a525 5f3d
000003c0: 37b0 d23c a748 9bbc 63a4 23bc 4ca2 1b3b
000003d0: b2c0 813a ea1c 9b3c 6775 6cbc 8620 6e3c
000003e0: 87b6 e33c ef4d 39bd 11ba 873b 9609 cabb
000003f0: 79ab e3bb 81c2 5cbc ee62 07bd 96d5 a93d
