checkpoints/ppo_ep80.pt (torch, 9607 bytes, 7 tensors)

fc1.weight f4 [128, 4]
0	0x3ec3b8cc	0.38226926
1	0x3ed47b66	0.41500396
2	0xbdefe520	-0.11713624
3	0x3eeb2a1c	0.45930564
4	0xbde05cb0	-0.10955179
5	0x3dcea238	0.100895345
6	0xbe794510	-0.24342752
7	0x3e965828	0.29364133
8	0x3ee31b1b	0.44356617
9	0xbeba6072	-0.36401707
10	0x3edff41a	0.43740922
11	0x3dc550e8	0.09634572
12	0x3ebe90d1	0.3721986
13	0x3d906882	0.07051183
14	0x3e79c22a	0.24390474
15	0xbd8aea77	-0.06783002
16	0x3ec558c6	0.3854429
17	0x3d975b38	0.073904455
18	0xbe6f05a4	-0.23341995
19	0x3e028208	0.12744915
20	0xbe6be5ac	-0.23036832
21	0xbd702cc0	-0.058636427
22	0xbe4ff3fc	-0.20307916
23	0x3ea9d2ae	0.33168548
24	0xbeca142a	-0.3946851
25	0xbe6c098c	-0.23050517
26	0xbe10936c	-0.14118737
27	0xbe99ecfe	-0.30063623
28	0x3d35d172	0.044389196
29	0xbefe4822	-0.49664408
30	0x3ee5c0ca	0.4487365
31	0xbedae26b	-0.42750868
32	0x3ec5a396	0.3860137
33	0x3daa69c8	0.083209574
34	0xbe263fac	-0.16235226
35	0x3e9e31f8	0.30897498
36	0x3d99dbd3	0.07512631
37	0x3ecd6788	0.4011805
38	0x3d545b33	0.051844787
39	0xbe244ef0	-0.16045737
40	0x3e0c6d88	0.13713658
41	0xbe07fad1	-0.13279273
42	0x3e5a5b8c	0.21323985
43	0x3ee5fa8b	0.44917712
44	0x3e928cea	0.28623134
45	0xbe62b343	-0.22138695
46	0x3e9256b6	0.2858178
47	0x3db18c09	0.08669288
48	0x3e82017a	0.25391752
49	0xbe9c0886	-0.30475253
50	0xbefd6aa4	-0.49495423
51	0xbe45d10c	-0.19318026
52	0xbec2efa6	-0.38073462
53	0x3ed37b1f	0.4130487
54	0x3e165573	0.14681034
55	0x3e56e394	0.20985252
56	0x3e24c862	0.16092065
57	0xbbc18384	-0.0059055705
58	0x3ec9c8e6	0.39411086
59	0xbeb47a60	-0.35249615
60	0x3d0c6598	0.034276575
61	0xbead4c5f	-0.3384733
62	0x3e20c135	0.15698703
63	0xbe2d7dd4	-0.16942531
64	0x3e1a0394	0.15040427
65	0xbddb16a2	-0.10697676
66	0x3ed2e17b	0.41187653
67	0xbe992731	-0.29912713
68	0xbe9a1c55	-0.3009974
69	0xbe9a1efd	-0.30101767
70	0x3ee4d0fb	0.4469069
71	0x3e27c9b6	0.1638554
72	0x3ef65610	0.48112535
73	0xbed3454e	-0.41263813
74	0xbefdeb98	-0.49593806
75	0xbec848fe	-0.3911819
76	0xbeaac710	-0.33354998
77	0x3e523ea3	0.20531707
78	0x3e3a36a0	0.181849
79	0x3ed62205	0.4182283
80	0xbe85a330	-0.26101065
81	0xbeaff3b0	-0.34365606
82	0x3e866321	0.26247504
83	0xbe51c9ec	-0.20487183
84	0x3e9ccd26	0.30625266
85	0xbded4690	-0.11585724
86	0x3e93e191	0.2888303
87	0xbec57d6c	-0.38572252
88	0xbe829f65	-0.25512233
89	0x3e193ad3	0.14963846
90	0x3dd2b810	0.102890134
91	0xbe055fde	-0.13024852
92	0x3e989802	0.29803473
93	0x3eae07fa	0.3399046
94	0xbeb9a4f6	-0.36258668
95	0xbe88ab96	-0.2669341
96	0x3eea68d2	0.45783097
97	0xbe2cc3f4	-0.16871625
98	0xbe35832c	-0.1772582
99	0xbef7b448	-0.4837973
100	0xbe929a84	-0.2863351
101	0x3dffcc88	0.12490183
102	0xbd872938	-0.06599659
103	0xbeb9d3aa	-0.362943
104	0x3c402840	0.011728346
105	0xbeaede6e	-0.34154075
106	0xbed93086	-0.42419833
107	0xbe8cf83a	-0.27533132
108	0xbedf3584	-0.43595517
109	0xbea22724	-0.31670487
110	0x3f006625	0.5015586
111	0x3dc472a7	0.09592181
112	0x3e1dc71c	0.15407985
113	0xbeeec466	-0.46634215
114	0xbea82254	-0.3283869
115	0xbe2a6c14	-0.16642791
116	0x3da01fc0	0.07818556
117	0xbee14286	-0.43996066
118	0xbe5c9b64	-0.21543652
119	0xbe994258	-0.2993343
120	0x3ab59e00	0.0013856292
121	0xbe3e8450	-0.1860516
122	0xbd0deaf0	-0.034647882
123	0xbead7924	-0.33881485
124	0xbeafb798	-0.34319758
125	0xbe9559d2	-0.2917009
126	0xbe2f419c	-0.17114872
127	0xbeca0e50	-0.39464045
128	0x3ed8144a	0.4220298
129	0xbdc57f8e	-0.0964347
130	0x3eddb371	0.43300965
131	0x3e225cd8	0.1585573
132	0xbed8c7b0	-0.4233985
133	0x3eb12938	0.3460176
134	0xbe0cdfc8	-0.13757241
135	0xbe444350	-0.19166303
136	0xbed5ee3d	-0.41783324
137	0xbefff057	-0.49988052
138	0x3e0f9b67	0.14024125
139	0xbde55bd7	-0.11199158
140	0x3e4a31f4	0.19745618
141	0xbed0a86b	-0.40753493
142	0x3ebf8046	0.37402552
143	0xbeba8069	-0.36426094
144	0xbdb68e48	-0.08913857
145	0x3dd023ca	0.10163076
146	0x3e82b7c6	0.25530833
147	0x3ecd404d	0.4008812
148	0x3ee7c55f	0.4526777
149	0xbecc6c82	-0.39926535
150	0x3dfbefae	0.12301575
151	0xbe5f10b9	-0.21783723
152	0xbd6be394	-0.057590082
153	0xbec10c08	-0.37704492
154	0x3ee7bd3b	0.4526156
155	0xbebd4f2a	-0.3697446
156	0x3e87623f	0.26442143
157	0x3e311039	0.17291345
158	0x3e237d74	0.15965825
159	0xbe8bd3b8	-0.27309966
160	0x3eea1f52	0.4572702
161	0x3de6c096	0.112672016
162	0x3d897bf0	0.06713092
163	0xbee02f65	-0.4378616
164	0x3e56ee84	0.20989424
165	0xbd999f00	-0.0750103
166	0xbe6a8f44	-0.22906214
167	0x3edbe3ec	0.42947328
168	0x3de44cb0	0.111474395
169	0xbe8da386	-0.2766382
170	0xbe819252	-0.25306946
171	0xbcc39b80	-0.02387786
172	0x3e8ef0c4	0.27918065
173	0xbe02d554	-0.1277669
174	0xbe921132	-0.28528744
175	0xbe2f54ac	-0.17122144
176	0xbec0af52	-0.3763376
177	0x3e33b9ea	0.1755139
178	0x3ec4b666	0.3842041
179	0xbef26d92	-0.4734922
180	0x3df38c7e	0.11892031
181	0x3e85adf8	0.2610929
182	0x3dbf704c	0.09347591
183	0xbe3380d7	-0.17529617
184	0x3e842f50	0.25817347
185	0x3e85190b	0.2599567
186	0x3e3c91c5	0.18414982
187	0xbdb99c3c	-0.090630025
188	0xbe079408	-0.13240063
189	0x3d5b18d0	0.05349046
190	0xbdb4e4d0	-0.08832705
191	0xbe189398	-0.14900053
192	0x3ea21d46	0.3166296
193	0x3eda7bb4	0.42672503
194	0xbd56ef01	-0.052474026
195	0xbdeb32f0	-0.11484325
196	0x3b9358b5	0.0044966587
197	0xbd05c213	-0.032655787
198	0x3df06a4a	0.11739023
199	0x3e0ca452	0.13734558
200	0xbee71587	-0.45133612
201	0xbe3a15ef	-0.1817243
202	0x3ed905f3	0.4238735
203	0x3e4a481f	0.19754075
204	0xbccbb9a0	-0.024868786
205	0xbe9a5808	-0.30145288
206	0xbe9c9f42	-0.30590254
207	0xbee550fa	-0.44788343
208	0xbe240977	-0.16019236
209	0x3e2fc340	0.17164326
210	0x3ea4aaed	0.32161656
211	0x3e6f36ef	0.23360799
212	0xbee24a28	-0.44197202
213	0xbe99f2e4	-0.30068123
214	0xbda19ab0	-0.078908324
215	0x3ef7a438	0.48367476
216	0x3d99d7d0	0.07511866
217	0xbe01bbd9	-0.12669314
218	0x3e56b236	0.2096642
219	0xbe402f42	-0.18768027
220	0xbea5b28c	-0.32362783
221	0x3ebad9e4	0.36494362
222	0xbe68ceac	-0.22735089
223	0xbdcd4728	-0.100233376
224	0xbefd3d34	-0.49460757
225	0x3eacc3ea	0.3374322
226	0x3ec364cb	0.38162836
227	0x3e3d6e03	0.18498997
228	0xbeb28090	-0.3486371
229	0xbefca818	-0.49346995
230	0xbecfeaf6	-0.40608948
231	0x3ebee636	0.37285012
232	0x3e72f2d0	0.23725438
233	0x3ed5fdbf	0.41795155
234	0x3e84ab6e	0.2591204
235	0x3dfd7e31	0.12377585
236	0xbba07180	-0.0048963428
237	0xbec2b086	-0.38025302
238	0xbedb556c	-0.4283861
239	0xbeef7302	-0.46767431
240	0x3e5197e4	0.20468098
241	0xbe7b6028	-0.245484
242	0xbdce1528	-0.10062629
243	0xbe935450	-0.28775263
244	0xbdba98d0	-0.09111178
245	0xbeb42e86	-0.35191745
246	0xbea74640	-0.32670784
247	0x3e29d600	0.16585541
248	0xbe182a20	-0.1485982
249	0x3e9e0a34	0.3086716
250	0xbe24410c	-0.16040438
251	0xbebbcb10	-0.36678362
252	0xbdb4ac68	-0.088219464
253	0xbe7830d0	-0.2423737
254	0xbe1ca460	-0.15297079
255	0xbef3b5fc	-0.4759978

fc1.bias f4 [128]
0	0x3e1f5b78	0.15562236
1	0xbec34b96	-0.38143605
2	0xbea08cfc	-0.31357563
3	0xbed366f9	-0.412895
4	0x3edf0ece	0.43565983
5	0xbef26aa6	-0.4734699
6	0x3ec11e2e	0.37718338
7	0xbca0aaca	-0.019612689
8	0xbd6e2e10	-0.058149397
9	0x3e9eb03f	0.3099384
10	0xbd31d628	-0.043417126
11	0x3e9f1e1d	0.31077662
12	0x3eb91782	0.36150748
13	0xbedcd6c8	-0.43132615
14	0x3e47de52	0.19518402
15	0x3dc70984	0.09718612
16	0x3dd66d0d	0.104700185
17	0x3d8fc290	0.07019532
18	0x3e0c0c40	0.13676548
19	0xbe737140	-0.2377367
20	0xbd88bef5	-0.06677047
21	0x3ef4a91c	0.4778527
22	0x3eaa8f67	0.33312532
23	0xbc99e160	-0.018784225
24	0xbef0c6a2	-0.47026545
25	0x3cb384c0	0.021913886
26	0xbeae5448	-0.34048676
27	0x3ed10746	0.40825862
28	0xbe9b6a14	-0.3035437
29	0xbd13de70	-0.036100805
30	0xbde344f0	-0.11097133
31	0x3db63988	0.08897692
32	0x3ef255c8	0.4733107
33	0x3d429970	0.04750961
34	0x3e92d51c	0.28678215
35	0x3ec82503	0.39090738
36	0x3ecd3c77	0.40085194
37	0xbe33b0f2	-0.17547968
38	0xbdeac20e	-0.11462794
39	0x3e73e0f6	0.23816285
40	0xbe08d83d	-0.13363738
41	0x3e6fc04c	0.23413199
42	0xbddfb600	-0.109233856
43	0xbeada1f2	-0.33912617
44	0x3e4d8970	0.2007196
45	0x3da2b9c5	0.07945589
46	0x3e616852	0.22012451
47	0x3efe551a	0.49674302
48	0x3ead419d	0.3383912
49	0x3ef13fb7	0.47118923
50	0x3cf21eda	0.029555727
51	0xbedc36e4	-0.43010628
52	0xbeb2297f	-0.34797284
53	0xbe9f053e	-0.31058687
54	0xbee02b92	-0.43783242
55	0xbe8051c2	-0.25062376
56	0xbeea3bc6	-0.4574873
57	0xbeec3084	-0.46130764
58	0xbe9a6865	-0.30157772
59	0xbefc5f9c	-0.49291694
60	0xbe9d22d0	-0.30690622
61	0x3e433ae4	0.19065434
62	0x3ed5847c	0.4170264
63	0xbe184d0c	-0.14873141
64	0xbe1211d2	-0.1426461
65	0x3e874236	0.26417702
66	0xbe7c9b1c	-0.24668545
67	0xbe6f3a9c	-0.23362201
68	0x3e9c4bba	0.30526525
69	0xbedd9f77	-0.43285725
70	0x3d7a6b30	0.06113738
71	0x3ee22552	0.44169098
72	0x3daf9a28	0.08574325
73	0x3e085e5d	0.13317247
74	0xbe951796	-0.29119557
75	0xbbe20b00	-0.006898284
76	0x3ce13760	0.027492225
77	0x3df59754	0.11991754
78	0x3e441110	0.19147134
79	0x3ede724e	0.43446583
80	0xbec4d6fa	-0.38445264
81	0x3c758ec0	0.0149876475
82	0xbe7cf3af	-0.24702333
83	0xbec9149c	-0.39273536
84	0xbd23ffc0	-0.040038824
85	0xbee15734	-0.44011843
86	0x3eb417d1	0.3517442
87	0x3d61b897	0.05510768
88	0xbe89f928	-0.26947904
89	0x3e85c7be	0.26128954
90	0xbef2491a	-0.47321397
91	0xbe48e86c	-0.19619912
92	0xbdcd3a64	-0.10020903
93	0xbed9893c	-0.42487514
94	0xbea15b1f	-0.31514832
95	0xbda16880	-0.0788126
96	0x3ec23e66	0.3793823
97	0x3ef7351e	0.48282713
98	0x3ea45087	0.32092687
99	0xbe976e8c	-0.29576528
100	0xbea60c8b	-0.32431445
101	0x3edf68d2	0.4363466
102	0x3e351a74	0.17685872
103	0x3c83bbd7	0.01608078
104	0x3d8a9480	0.067666054
105	0xbecdbf12	-0.40184838
106	0xbe2af308	-0.16694272
107	0x3ef4ff23	0.47850904
108	0xbdfc8d28	-0.12331611
109	0xbccd78e0	-0.025082052
110	0xbed324fa	-0.41239148
111	0xbe8f354e	-0.27970356
112	0xbc274700	-0.010209799
113	0xbea07eb3	-0.31346664
114	0xbd728404	-0.05920793
115	0x3e4d7ee3	0.20067935
116	0xbefa69d4	-0.48908865
117	0x3e1aeed5	0.1513017
118	0xbea944f0	-0.33060408
119	0xbe79e1d4	-0.24402553
120	0x3e448fd0	0.19195485
121	0x3eca1d93	0.39475688
122	0xbe0ecdd6	-0.13945708
123	0xbe52361c	-0.20528454
124	0xbee77c00	-0.45211792
125	0xbe8293ab	-0.25503287
126	0xbee029be	-0.43781847
127	0xbdf018d0	-0.117234826

fc_mu.weight f4 [1, 128]
0	0x3c93c07d	0.018036122
1	0xbda997b6	-0.0828089
2	0x3da3cf47	0.079985194
3	0x3d6ea74a	0.058265008
4	0xbdb13548	-0.08652741
5	0xbd2cebef	-0.04221719
6	0x3cec295d	0.028828317
7	0xbc7b7071	-0.015346632
8	0xbc1dd097	-0.009632251
9	0xbd17f58e	-0.037099414
10	0x3d972837	0.07380717
11	0xbd3edbb4	-0.046596244
12	0x3d961d79	0.0732984
13	0x3c0b8155	0.008514722
14	0x3ca8974b	0.020579955
15	0x3d92fb0d	0.071767904
16	0xbc4085c1	-0.011750639
17	0xbd429953	-0.047509503
18	0xbc6a3757	-0.014295421
19	0x3d98937f	0.07450008
20	0xbd808c97	-0.062768154
21	0x3cbb6261	0.02287406
22	0xbdac241d	-0.084053256
23	0x3d3dd151	0.046342198
24	0x3d05c2f9	0.032656644
25	0x3b758fea	0.0037469813
26	0x3d1b626f	0.03793567
27	0x3b3ee55a	0.0029128403
28	0x3d4855cb	0.048909944
29	0xbd8f4c72	-0.06997003
30	0xbc54aa45	-0.012980049
31	0x3d209b0b	0.03921036
32	0x3dba0539	0.090830274
33	0x3d386b5d	0.045024265
34	0xbd7bb695	-0.06145342
35	0x3d90fb49	0.07079179
36	0xbc8a6d0a	-0.016897697
37	0xbc838e01	-0.016058924
38	0xbd9ec4a6	-0.077523515
39	0xbc35e63c	-0.011102255
40	0x3d85c9d1	0.06532634
41	0x3c49f00c	0.012325298
42	0xbd52def0	-0.05148214
43	0x3cdee138	0.027207002
44	0xbcd12032	-0.025528047
45	0x3dab05b5	0.08350698
46	0xbd975bfa	-0.0739059
47	0xbce4b7e3	-0.027919715
48	0xbda92d64	-0.08260611
49	0xbd030eea	-0.031996645
50	0x3cfb4fa4	0.030677624
51	0x3dae407a	0.08508392
52	0x3c90a4c2	0.017656688
53	0x3db176be	0.086652264
54	0x3ca4b4b6	0.020105701
55	0x3d511722	0.05104745
56	0x3d96e05a	0.073670104
57	0x3d97517b	0.07388588
58	0xbd3f2068	-0.046661764
59	0x3da66d67	0.081263356
60	0x3d5b4f7e	0.053542607
61	0xbd29481c	-0.041328534
62	0xbd2cc41d	-0.042179216
63	0xbd97d44b	-0.074135385
64	0x3ccce191	0.025009902
65	0xbd8cf6e5	-0.06883029
66	0x3d18ef1f	0.03733742
67	0x3cfbb6d3	0.030726826
68	0xbd9782f8	-0.07398027
69	0x3cdc5b36	0.026898962
70	0xbbeb8ef3	-0.0071886717
71	0x3d2562bc	0.040377364
72	0x3d4fbbe9	0.050716314
73	0xbdae300c	-0.08505258
74	0x3da6033c	0.08106086
75	0x3d97cf77	0.07412618
76	0x3d100c9d	0.03516828
77	0xbd9faf0b	-0.07797059
78	0xbceb9c58	-0.028761074
79	0xbcd289f7	-0.025700552
80	0xbca30917	-0.019901795
81	0x3d4c2977	0.04984423
82	0x3d0f2678	0.034948796
83	0x3d952a24	0.07283428
84	0xbd079785	-0.033103485
85	0x3cf3ae49	0.029746192
86	0x3d0c55ca	0.034261502
87	0xbd90f37a	-0.070776895
88	0xbdaf97a4	-0.08573845
89	0xbd3bdba0	-0.045863748
90	0x3d77d52d	0.060506035
91	0xbda4aa15	-0.08040253
92	0xbd97cda6	-0.07412271
93	0x3d4ad074	0.049515203
94	0x3d4ed8e0	0.050499797
95	0x3d9aa0b9	0.07550187
96	0xbd88a894	-0.06672779
97	0xbd847cee	-0.06469141
98	0x3d453aa4	0.048151627
99	0x3da32eb0	0.07967889
100	0x3d641f36	0.055693828
101	0x3c62db41	0.0138462195
102	0x3ceea338	0.029130563
103	0x3db19137	0.08670276
104	0xbd6996c3	-0.057028543
105	0xbd245ead	-0.040129352
106	0x3d7d3bed	0.061824728
107	0xbd6c32f0	-0.057665765
108	0xbd47a1f7	-0.048738446
109	0x3d84247b	0.064522706
110	0x3cf97c62	0.030454818
111	0x3ce9ed7e	0.028555628
112	0xbd197255	-0.03746255
113	0x3ad12709	0.0015957068
114	0x3dab6d49	0.08370454
115	0xbd4dc822	-0.05023969
116	0x3a362bd0	0.00069492776
117	0x3d37b2e9	0.044848356
118	0xbd79ef87	-0.061019447
119	0x3dafcd42	0.08584072
120	0xbd34e0db	-0.04415975
121	0xbc96d148	-0.01841034
122	0xbcace5dc	-0.0211057
123	0xbd6becfc	-0.057599053
124	0xbdb1a0bc	-0.08673236
125	0x3d57aa87	0.052652862
126	0x3cc05e5d	0.023482496
127	0xbda3c391	-0.07996286

fc_std.weight f4 [1, 128]
0	0x3db2e9ea	0.08736022
1	0x3d0a6245	0.033785123
2	0x3d11441d	0.03546535
3	0xbd589b67	-0.05288258
4	0xbd1eb762	-0.038749106
5	0xbc5a9adc	-0.013342585
6	0xbc846b51	-0.016164454
7	0xbd78161f	-0.06056797
8	0x3bee9cbe	0.0072818687
9	0x3c0fede0	0.008784741
10	0xbc375de7	-0.011191822
11	0x3c48c2a4	0.012253437
12	0xbd0f7e87	-0.035032775
13	0x3cbc7147	0.023003234
14	0x3d088a17	0.033334818
15	0xbd3eb32c	-0.04655759
16	0xbdb37eb7	-0.08764403
17	0x3d3d80e5	0.0462655
18	0x3cacb812	0.021083865
19	0xbd3820e6	-0.04495325
20	0x3dae72dd	0.08518002
21	0xbd23bb33	-0.03997345
22	0x3d74a57f	0.059728142
23	0x3d37ac2b	0.044841927
24	0xbd97c4a1	-0.07410551
25	0x3d697e63	0.057005297
26	0xbda67140	-0.081270695
27	0xbd489322	-0.04896844
28	0xbc716dd1	-0.014735655
29	0xbd7407e9	-0.059577856
30	0x3db0d6ee	0.086347446
31	0xbc913c34	-0.017728902
32	0x3d0fcc4c	0.035106942
33	0xbda1a263	-0.07892301
34	0x3d5069db	0.0508822
35	0xbce1080e	-0.027469661
36	0xbd89b23a	-0.06723447
37	0x3c53c0e2	0.012924405
38	0x3d2f64d7	0.042820778
39	0x3d9ca753	0.07649102
40	0xbd5d216c	-0.05398695
41	0xbd322929	-0.043496285
42	0x3c8b3694	0.016993798
43	0x3cc46a02	0.02397633
44	0x3d0b319e	0.033982866
45	0x3d46b6cc	0.048514172
46	0xbca42fee	-0.020042386
47	0x3d492340	0.049105883
48	0x3d8576cb	0.065167986
49	0xbcbd2504	-0.02308894
50	0x3d80c99b	0.06288453
51	0x3d30e27a	0.043184735
52	0x3d9fab2a	0.07796319
53	0xbd4dbcb4	-0.05022879
54	0xbd32c727	-0.043646958
55	0xbcd15be3	-0.02555651
56	0x3b92eb46	0.004483613
57	0x3d594b95	0.053050596
58	0xbd4eaca2	-0.050457604
59	0x3d354190	0.04425198
60	0xbd01bf78	-0.03167674
61	0x3d5ab5ff	0.05339622
62	0xbb898240	-0.004196435
63	0xbd9e96b3	-0.07743587
64	0xbd4735d5	-0.048635323
65	0xbd83035b	-0.063971244
66	0x3d338ebf	0.043837305
67	0xbd72c3ae	-0.059268646
68	0xbbf150bd	-0.007364361
69	0x3c9c3951	0.0190703
70	0xbd468a43	-0.0484717
71	0x3cd0dfe6	0.025497388
72	0xbdb0c063	-0.08630445
73	0xbd818557	-0.06324261
74	0xbda4069e	-0.08009075
75	0xbcdb045a	-0.026735473
76	0xbd03e3c6	-0.032199644
77	0x3c4f5dbb	0.012656624
78	0xbc85e473	-0.016344285
79	0x3d2a3019	0.041549776
80	0x3da5f52b	0.08103403
81	0x3d01e571	0.031712953
82	0xbd0ea1a8	-0.034822136
83	0xbda98100	-0.08276558
84	0x3d032190	0.03201443
85	0xbd335ffa	-0.043792702
86	0x3d383ba0	0.044978738
87	0x3d720474	0.059086278
88	0x3d0ba54f	0.034093197
89	0x3da9da36	0.082935736
90	0x3dabee78	0.08395094
91	0x3c9950e9	0.018715339
92	0xbd83e5b8	-0.064403
93	0x3da1baeb	0.0789698
94	0xbd2bc92b	-0.041939896
95	0xbd2b02a0	-0.04175055
96	0x3d97791e	0.07396148
97	0x3d8c4172	0.0684842
98	0x3cdac7eb	0.026706656
99	0x3bb58d3e	0.005540519
100	0xbd98446d	-0.07434926
101	0xbc16530c	-0.009175073
102	0x3dad9ed3	0.08477559
103	0x3cb86487	0.022508873
104	0x3bf7f9ed	0.0075676353
105	0xbc965afb	-0.01835393
106	0xbcfc8b9d	-0.030828292
107	0x3d57c885	0.052681465
108	0x3bb29c71	0.005450778
109	0x3d6b8874	0.05750318
110	0xbc802923	-0.015644616
111	0x3d1e2d93	0.03861768
112	0x3d15704d	0.03648405
113	0x3c66edc0	0.01409477
114	0x3d637ece	0.055540852
115	0x3d62debc	0.055388197
116	0x3da7ca81	0.081929214
117	0x3d8b29cf	0.06795084
118	0xbcb924e7	-0.022600604
119	0xbd99412f	-0.07483136
120	0x3c845fbd	0.016158933
121	0xba4a3cf2	-0.000771477
122	0xbcbcdb96	-0.023053925
123	0xbc728016	-0.014801046
124	0x3b8838bd	0.0041571544
125	0x3d8413be	0.06449078
126	0x3ce1b98a	0.027554292
127	0xbd008ed1	-0.0313862

fc1.weight f4 [128, 4]
0	0xbe2fe14f	-0.17175792
1	0xbe6e149e	-0.23250052
2	0x3ee02537	0.43778393
3	0x3ea3c013	0.31982478
4	0x3ed41911	0.41425374
5	0xbcf33d0f	-0.029692201
6	0x3db5d5cc	0.08878669
7	0x3e5c56f5	0.21517546
8	0xbef2514e	-0.47327656
9	0x3d36e120	0.04464829
10	0xbd08fda0	-0.033445
11	0xbe8f8706	-0.28032702
12	0xbea8fb67	-0.33004305
13	0x3efafa1d	0.49018946
14	0x3ed62b32	0.4182983
15	0x3e270b2b	0.16312854
16	0x3ef449b6	0.47712487
17	0xbe4fc60c	-0.20290393
18	0xbdb0de38	-0.08636135
19	0x3e41da4c	0.1893093
20	0xbda93128	-0.08261329
21	0xbdc8f1c8	-0.09811741
22	0xbed39988	-0.41328073
23	0x3e098df8	0.13433063
24	0xbe73810d	-0.23779698
25	0x3d91fd8a	0.07128437
26	0x3effadc9	0.49937275
27	0xbe6b2cbd	-0.22966285
28	0xbe2160d0	-0.15759587
29	0x3e9a72b6	0.30165642
30	0xbe3c3d0c	-0.18382663
31	0xbd2fe080	-0.04293871
32	0x3eef097c	0.46686924
33	0xbe51e814	-0.20498687
34	0xbeb72520	-0.35770512
35	0xbe8f44d0	-0.27982187
36	0xbe0df324	-0.13862282
37	0xbe72f180	-0.23724937
38	0xbe84d8b6	-0.25946587
39	0x3e4ed1d0	0.20197225
40	0x3dae0428	0.084968865
41	0xbe23df1c	-0.16003078
42	0xbec6e3aa	-0.3884557
43	0xbe213550	-0.15742993
44	0xbe581584	-0.21101958
45	0xbe269d50	-0.16270947
46	0xbee6f188	-0.4510615
47	0x3ddc9970	0.107714534
48	0xbebc16d8	-0.36736178
49	0xbec75f62	-0.3893996
50	0xbed12916	-0.4085166
51	0x3e55b350	0.20869184
52	0xbe508d66	-0.20366439
53	0xbdfb6156	-0.12274425
54	0x3ecfe47c	0.40604007
55	0x3e326122	0.17419866
56	0x3e92c9c4	0.2866956
57	0xbef312dc	-0.47475326
58	0xbeb793da	-0.3585499
59	0xbe414920	-0.18875551
60	0x3ed37b22	0.4130488
61	0x3d5182e0	0.051150203
62	0xbebf7630	-0.37394857
63	0x3b4d3000	0.0031309128
64	0xbec6d3e6	-0.3883354
65	0xbde05b90	-0.10954964
66	0xbe0cc988	-0.13748753
67	0x3edd9c00	0.4328308
68	0x3e6535d9	0.22383823
69	0xbcf7cb14	-0.030248202
70	0x3dc57e20	0.09643197
71	0xbe656f1b	-0.22405665
72	0x3e1fea77	0.15616785
73	0x3e2846d0	0.16433263
74	0x3dfa70cf	0.12228548
75	0xbe19f8e4	-0.1503635
76	0x3eda6816	0.42657536
77	0xbd93d5b8	-0.07218498
78	0xbe475484	-0.19465834
79	0x3ea0561e	0.31315702
80	0x3eb85cab	0.360082
81	0x3eeabd2b	0.4584745
82	0x3e0b9667	0.13631593
83	0xbdeafe52	-0.11474289
84	0x3e820536	0.253946
85	0x3edba2e8	0.42897725
86	0xbefb17f2	-0.49041706
87	0xbd7db870	-0.06194347
88	0xbe8e1cd0	-0.27756357
89	0x3e14f9b3	0.14548378
90	0x3e5fe1ee	0.21863529
91	0xbe367fd5	-0.17822202
92	0xbd2b5470	-0.041828573
93	0x3e6674ec	0.2250554
94	0xbdac1a78	-0.08403486
95	0xbed6fbca	-0.41988975
96	0x3eccd5b6	0.40006799
97	0xbe80d938	-0.25165725
98	0xbd60fd80	-0.054929256
99	0x3d412e30	0.04716319
100	0xbd99d41f	-0.07511162
101	0xbf01cfa2	-0.5070745
102	0x3e5ebb6b	0.21751182
103	0xbe35f41b	-0.177689
104	0xbe84c6e0	-0.2593298
105	0x3df4a640	0.11945772
106	0xbe8598c0	-0.26093102
107	0xbe6ca030	-0.23107982
108	0xbe2c84b4	-0.16847497
109	0xbe4058d0	-0.1878388
110	0xbe55d494	-0.20881873
111	0xbe0a1444	-0.13484293
112	0x3e050e70	0.12993789
113	0xbecf28e8	-0.40460896
114	0xbe9af3a6	-0.30264014
115	0x3bef1100	0.0072957277
116	0x3d8e67e0	0.06953406
117	0x3e8d630a	0.27614623
118	0xbeb3d35e	-0.35122198
119	0x3e236dc8	0.15959847
120	0x3e9181fe	0.2841949
121	0x3e8e2588	0.2776301
122	0xbeee71a4	-0.46571076
123	0xbe4361a0	-0.1908021
124	0xbeb202b8	-0.347677
125	0xbe7cbe9f	-0.24682091
126	0x3e952a37	0.2913377
127	0xbe26e600	-0.16298676
128	0x3e92406b	0.28564772
129	0xbe6e3637	-0.23262869
130	0x3db473df	0.08811163
131	0xbec58be9	-0.38583305
132	0x3e7ff1d8	0.249946
133	0xbe5ff024	-0.2186895
134	0xbe006380	-0.12537956
135	0xbede1d16	-0.43381566
136	0xbd196969	-0.037454043
137	0x3ee271f5	0.44227567
138	0x3e6c29e8	0.23062861
139	0xbe6689bc	-0.22513479
140	0x3bdc5800	0.0067243576
141	0xbd608f60	-0.054824233
142	0xbece1958	-0.4025371
143	0x3ec8ba32	0.39204556
144	0x3c040f80	0.008060336
145	0x3dd7a6c0	0.10529852
146	0xbe4ec2ac	-0.20191449
147	0xbe6f9318	-0.23395956
148	0x3db51cee	0.088434085
149	0x3e3debf9	0.18547048
150	0x3dcb6f82	0.09933378
151	0xbe88c7ab	-0.26714835
152	0x3ef88cc2	0.4854489
153	0xbd96bcc0	-0.0736022
154	0xbe9cc73c	-0.30620754
155	0xbe6f7808	-0.23385632
156	0x3efc0300	0.4922104
157	0x37ca0000	2.4080276e-05
158	0xbd8b0088	-0.06787211
159	0xbe551328	-0.20808089
160	0xbe0637ec	-0.1310727
161	0xbed79c4a	-0.42111427
162	0xbecb7060	-0.39734173
163	0x3e95d588	0.29264474
164	0x3edafebc	0.42772472
165	0x3ef44d08	0.4771502
166	0xbeb8d136	-0.36097115
167	0x3e8a7604	0.27043164
168	0xbeb67ab5	-0.35640493
169	0x3e850694	0.2598158
170	0x3eb2a732	0.34893185
171	0x3ee19070	0.4405551
172	0x3ecb9336	0.3976075
173	0x3eacb82e	0.33734268
174	0xba84e2df	-0.0010138414
175	0x3e33dfe0	0.1756587
176	0xbe372dc0	-0.17888546
177	0x3e5ef150	0.21771741
178	0xbe248ecc	-0.16070098
179	0xbc098e00	-0.008395672
180	0xbeded126	-0.43518943
181	0xbe05e000	-0.1307373
182	0xbe869f9c	-0.26293647
183	0xbe2cb550	-0.1686604
184	0xbf02d0d5	-0.510999
185	0xbf1b8fb8	-0.6076617
186	0x3d9a95f0	0.075481296
187	0x3ee402e4	0.44533455
188	0x3ee926e0	0.45537472
189	0x3e9563ce	0.29177707
190	0xbe84b1c2	-0.25916868
191	0xbefd2fbe	-0.49450487
192	0x3e42356c	0.18965691
193	0x3e8f70bc	0.28015697
194	0xbedbc772	-0.42925602
195	0x3e379898	0.17929304
196	0x3ed87132	0.4227386
197	0x3cf81f20	0.030288279
198	0xbe9a3abe	-0.30122942
199	0x3ed1e36a	0.40993816
200	0x3e5aa1d4	0.21350795
201	0x3ea98604	0.33110058
202	0xbead210c	-0.33814275
203	0x3e94fa62	0.29097277
204	0xbeaeddea	-0.34153682
205	0x3efd4f80	0.49474716
206	0xbe58ef2c	-0.21184987
207	0x3e9a41d6	0.30128354
208	0x3dcd0c20	0.10012078
209	0x3e07af74	0.13250524
210	0xbd9d0918	-0.0766775
211	0x3e524be8	0.20536768
212	0xbe556320	-0.20838594
213	0xbef14ce0	-0.47128963
214	0xbe44b644	-0.19210154
215	0x3ec895fc	0.3917693
216	0xbe06cb48	-0.13163483
217	0x3e20ee58	0.15715921
218	0xbe3d4cc8	-0.18486321
219	0x3ec009c8	0.37507463
220	0x3e9936a8	0.29924512
221	0x3e34be34	0.17650682
222	0xbe82db7e	-0.25558084
223	0xbed12f6c	-0.40856493
224	0x3da6da8c	0.08147153
225	0xbe7788c8	-0.24173272
226	0x3ed88acd	0.42293397
227	0xbf0dee82	-0.5544206
228	0x3e348b5f	0.17631291
229	0x3eeb5dc3	0.45969972
230	0x3e744f4b	0.23858373
231	0x3e669898	0.22519147
232	0xbef64f3e	-0.48107332
233	0x3ef63ea2	0.4809466
234	0xbdaf2718	-0.085523784
235	0xbeef3564	-0.4672042
236	0x3ef1916d	0.47181264
237	0xbe66a3c8	-0.22523415
238	0xbd6a0edc	-0.057143077
239	0x3edf2aac	0.43587244
240	0xbece3763	-0.40276632
241	0xbecc6348	-0.39919496
242	0x3d8eaae6	0.0696619
243	0xbb259b87	-0.0025269703
244	0x3e388f00	0.180233
245	0xbeb98c23	-0.36239728
246	0x3ce3146b	0.027719697
247	0xbe857b79	-0.26070765
248	0xbe985af3	-0.2975689
249	0xbf000896	-0.500131
250	0x3e81b646	0.25334376
251	0x3e205a9b	0.15659563
252	0xbeb94b90	-0.36190462
253	0x3ee4bf81	0.44677356
254	0x3e267fb2	0.1625965
255	0x3caa9455	0.020822683

fc1.bias f4 [128]
0	0xbdf67a07	-0.120349936
1	0x3dd57db2	0.10424365
2	0x3cb90180	0.022583723
3	0xbe418c12	-0.18901089
4	0xbe3045fc	-0.17214197
5	0xbbbcd680	-0.005762875
6	0xbe7a7461	-0.24458458
7	0x3d2053e0	0.03914249
8	0xbd1099c0	-0.035302877
9	0x3e46a520	0.19398928
10	0x3df25880	0.11833286
11	0x3ebf9610	0.37419176
12	0xbc8706c0	-0.01648271
13	0xbe891ae2	-0.26778322
14	0x3e64de5c	0.22350448
15	0xbead03b6	-0.33791894
16	0xbd8cc050	-0.06872618
17	0xbdb79c32	-0.08965339
18	0xbe6d4cf1	-0.23173882
19	0xbe3d6e88	-0.18499196
20	0x3ed1d92e	0.40986007
21	0x3e928c88	0.28622842
22	0x3e51e6ba	0.20498171
23	0x3ef05f76	0.4694783
24	0xbee7fe2a	-0.453111
25	0x3d0947c9	0.033515725
26	0x3ea3e29a	0.3200882
27	0x3eaa0ee8	0.33214498
28	0xbecbbd12	-0.39792687
29	0x3e363728	0.17794478
30	0xbe91d6f0	-0.28484297
31	0x3d87b5eb	0.06626495
32	0xbce21d36	-0.02760182
33	0xbed5c03c	-0.41748226
34	0xbf048a5a	-0.5177361
35	0xbea86c00	-0.32894897
36	0x3e68549c	0.22688526
37	0x3e71b8f9	0.23605718
38	0xbedea8d6	-0.43488187
39	0xbe404714	-0.18777114
40	0x3c05cfc0	0.008167207
41	0xbedd5548	-0.43229127
42	0x3e6e39ea	0.2326428
43	0x3efcefc4	0.49401677
44	0x3db51b40	0.08843088
45	0xbebe3638	-0.3715074
46	0xbdae0adb	-0.08498164
47	0x3e39dcec	0.18150681
48	0x3ecab63a	0.39592153
49	0xbe8835bc	-0.26603496
50	0xbee55a58	-0.4479549
51	0x3e60f290	0.2196753
52	0x3cff0080	0.031128168
53	0xbe26d2b8	-0.1629132
54	0xbe568a18	-0.20951116
55	0xbe83ff66	-0.2578079
56	0x3ef0d30b	0.47036013
57	0xbe0acb47	-0.13554107
58	0x3eb8a106	0.3606035
59	0x3ed96018	0.42456126
60	0x3b900530	0.0043951496
61	0x3e3242c7	0.17408286
62	0xbdb4c317	-0.08826273
63	0x3ed070e7	0.40711138
64	0xbf00f947	-0.5038037
65	0x3e484ee7	0.19561349
66	0xbda6d6d0	-0.08146441
67	0x3e69c99c	0.22830814
68	0xbb11f300	-0.0022270083
69	0xbded2973	-0.115801714
70	0x3ce2adcc	0.027670763
71	0x3ea3805f	0.31933877
72	0xbe85a4ce	-0.26102298
73	0xbe802835	-0.25030676
74	0xbde55f50	-0.1119982
75	0xbe39b708	-0.18136227
76	0x3e492238	0.1964196
77	0x3e91c8b4	0.28473437
78	0xbda2dfef	-0.07952868
79	0x3ef0a998	0.4700439
80	0xbe55ec80	-0.20890999
81	0xbea2ff12	-0.31835228
82	0xbe8c2605	-0.27372757
83	0xbec2d656	-0.3805415
84	0xbeb37066	-0.3504669
85	0xbee41998	-0.44550776
86	0xbec3987a	-0.38202268
87	0x3e05a19c	0.1304993
88	0x3e9c1f64	0.304927
89	0x3ef0584c	0.46942365
90	0x3efadc3e	0.48996156
91	0x3d0d44c3	0.034489404
92	0x3dc6b428	0.09702331
93	0xbe992b7c	-0.29915988
94	0x3e1bdbcb	0.15220563
95	0xbef5769c	-0.47942054
96	0x3e717f1c	0.23583645
97	0x3d1f03df	0.03882205
98	0x3dcea3fd	0.10089872
99	0x3e3b77cc	0.18307418
100	0xbe6b0fc8	-0.22955239
101	0x3edbacdc	0.4290532
102	0x3eb4331f	0.35195252
103	0x3ecb318b	0.39686236
104	0x3d873f98	0.066039264
105	0x3ea0c3ba	0.31399328
106	0x3eac49cc	0.33650053
107	0x3e680e68	0.22661746
108	0x3ee2256a	0.4416917
109	0xbe12a048	-0.14318955
110	0x3ea8544a	0.32876807
111	0x3d82596b	0.063647114
112	0x3e9a08c0	0.300848
113	0x3ee01f29	0.43773773
114	0x3de7df20	0.113218546
115	0xbe3e0998	-0.18558347
116	0x3c445faf	0.011985703
117	0x3db31c1b	0.08745595
118	0x3daca7e8	0.08430463
119	0xbe40f338	-0.1884278
120	0x3ee95cee	0.45578712
121	0x3e816f8d	0.2528042
122	0xbe9f03ee	-0.31057686
123	0xbd92e618	-0.07172793
124	0x3c9837e3	0.018581336
125	0xbea0716e	-0.3133654
126	0x3d955b00	0.072927475
127	0xbe1d2e2c	-0.15349644

fc2.weight f4 [1, 128]
0	0xbd10c091	-0.035339896
1	0xbc28e201	-0.01030779
2	0xbd011599	-0.031514738
3	0x3dc5a61a	0.09650822
4	0x3d0ade2e	0.033903293
5	0x3db224be	0.08698414
6	0x3d0fcbe0	0.03510654
7	0x3ca3f428	0.020013884
8	0x3d14d4ef	0.03633588
9	0x3c788cea	0.015170315
10	0xbd8e0f0e	-0.06936465
11	0xbd5617c5	-0.052268762
12	0xbcaf6dad	-0.021414602
13	0x3c377001	0.011196137
14	0x3d08629d	0.03329717
15	0x3d0b6701	0.03403378
16	0x3d8f9ae5	0.07011966
17	0x3d0480a9	0.032349262
18	0xbc7161f5	-0.014732827
19	0xbd88219d	-0.06647036
20	0xbd383bb9	-0.04497883
21	0xbd58425f	-0.05279767
22	0x3d174ccb	0.03693847
23	0x3d439972	0.04775376
24	0x3d9e6048	0.07733208
25	0xbca7bc19	-0.020475434
26	0xbbe47829	-0.006972332
27	0xbcd70646	-0.026248109
28	0xb9a95479	-0.0003229713
29	0x3ce86e0a	0.028372783
30	0xbafe8b6d	-0.0019420214
31	0x3c3defe2	0.011592837
32	0x3cc02e22	0.023459498
33	0x3d06d46f	0.032917436
34	0xbc51cf73	-0.012805807
35	0xbd57e1ff	-0.05270576
36	0x3caad3e1	0.020852985
37	0x3b9ab6cd	0.0047214986
38	0xbd24037e	-0.040042393
39	0x3d180af8	0.037119836
40	0x3a522290	0.00080160145
41	0xbc52a7c3	-0.01285738
42	0xbd0089b9	-0.031381343
43	0x3cfc25c4	0.030779727
44	0xbd99ecdf	-0.07515883
45	0x3ca4b878	0.020107493
46	0xbe17a494	-0.14808875
47	0x3d5bb2c1	0.05363727
48	0x3bbb0414	0.0057072733
49	0x3be79101	0.0070668464
50	0x3cc53f83	0.024078136
51	0x3d89be92	0.067258015
52	0xbd2b158b	-0.04176859
53	0x3d582392	0.052768297
54	0x3cb114dc	0.021616392
55	0xbd7185a6	-0.058965348
56	0x3d2be4e0	0.04196632
57	0xbd195344	-0.037432924
58	0xbce3ecf8	-0.027822956
59	0xbcd8c6d4	-0.026461996
60	0xbd9ba8e5	-0.076005735
61	0x3d17a4d0	0.03702241
62	0xbd950025	-0.07275418
63	0x3d66b15d	0.05632149
64	0xbd8d6089	-0.06903178
65	0x3a7d6d7c	0.00096674985
66	0x3bacbe04	0.005271675
67	0x3d80b045	0.06283621
68	0xbd0304fb	-0.03198717
69	0x3d2a72c8	0.04161337
70	0x3d1c2e81	0.038130287
71	0x3cc93f3b	0.024566283
72	0x3c819b24	0.015821047
73	0x3d3bcced	0.04584973
74	0xbd5ab448	-0.053394586
75	0xbd7b95ac	-0.061422035
76	0x3da14d62	0.07876088
77	0xbd54bb79	-0.0519366
78	0xbb39e845	-0.0028367203
79	0x3af610ec	0.0018773354
80	0x3db103e5	0.08643321
81	0xbc130f93	-0.008975881
82	0xbd424469	-0.047428522
83	0xbbfe06af	-0.0077522616
84	0x3d3abf47	0.045592573
85	0x3d0f78ed	0.035027433
86	0x3dadc83e	0.08485459
87	0xbc943b1b	-0.01809459
88	0x3d2a8964	0.041634932
89	0xbdaa58b0	-0.08317697
90	0x3d328683	0.04358531
91	0x3d4df640	0.05028367
92	0x3d698be3	0.057018172
93	0xbd4f9bb7	-0.05068561
94	0xbc4c217e	-0.012459157
95	0x3caf2d05	0.021383772
96	0xbd80a28f	-0.062810056
97	0xbd7575b1	-0.059926692
98	0xbd90f855	-0.070786156
99	0x3ba1ae24	0.0049340893
100	0x3d60d256	0.054888092
101	0x3cb9fc87	0.022703422
102	0x3d2c215a	0.042023994
103	0x3d490b4e	0.049083047
104	0xbd6381b0	-0.0555436
105	0x3c18ac4f	0.009318425
106	0xbcb3e0bd	-0.02195775
107	0xbd3342db	-0.04376493
108	0x3db24c01	0.08705903
109	0xbd6c443c	-0.05768226
110	0x3c54397d	0.012953159
111	0xbd75ec6e	-0.06003993
112	0xbb44864b	-0.0029987271
113	0xbcf24424	-0.029573508
114	0x3cee5406	0.0290928
115	0xbd4b4c68	-0.049633414
116	0x3d878b73	0.06618395
117	0xbd814a62	-0.063130155
118	0x3d59740d	0.05308919
119	0xbd5c01f5	-0.053712804
120	0x3d7fd14a	0.062455453
121	0xbcd05150	-0.025429398
122	0xb957e91f	-0.00020590842
123	0xbbaa7e14	-0.005203018
124	0x3db4d7fc	0.08830258
125	0x3ced4cd3	0.028967297
126	0xbd9f83d9	-0.0778882
127	0x3c0524e3	0.00812647
