checkpoints/ppo_critic_best.pt (torch, 4511 bytes, 3 tensors)

fc1.weight f4 [128, 4]
-0.124767736 -0.19419217 0.44865644 0.26425654 0.4505161 0.00063648116 0.09986094 0.17282757
-0.47327656 0.04464829 -0.033445 -0.28032702 -0.38707027 0.44352928 0.40743965 0.23232809
0.47712487 -0.20290393 -0.08636135 0.1893093 -0.08261329 -0.09811741 -0.41328073 0.13433063
-0.30130062 0.019034775 0.4883543 -0.15329121 -0.15759587 0.30165642 -0.18382663 -0.04293871
0.46686924 -0.20498687 -0.35770512 -0.27982187 -0.13862282 -0.23724937 -0.25946587 0.20197225
0.084968865 -0.16003078 -0.3884557 -0.15742993 -0.21101958 -0.16270947 -0.4510615 0.107714534
-0.36736178 -0.3893996 -0.4085166 0.20869184 -0.300763 -0.20613532 0.3921779 0.26641488
0.2866956 -0.47475326 -0.3585499 -0.18875551 0.4130488 0.051150203 -0.37394857 0.0031309128
-0.3883354 -0.10954964 -0.13748753 0.4328308 0.15571202 -0.08635321 0.085311696 -0.14370565
0.19548142 0.19682458 0.13330151 -0.19544499 0.42657536 -0.07218498 -0.19465834 0.31315702
0.4065858 0.4966488 0.14718367 -0.1710185 0.253946 0.42897725 -0.49041706 -0.06194347
-0.34011477 0.094036505 0.20766388 -0.102680296 -0.041828573 0.2250554 -0.08403486 -0.41988975
0.40006799 -0.25165725 -0.054929256 0.04716319 -0.0310212 -0.47130436 0.22842443 -0.22766995
-0.2593298 0.11945772 -0.26093102 -0.23107982 -0.16847497 -0.1878388 -0.20881873 -0.13484293
0.12993789 -0.40460896 -0.30264014 0.0072957277 0.06953406 0.27614623 -0.35122198 0.15959847
0.2841949 0.2776301 -0.46571076 -0.1908021 -0.42915592 -0.31578985 0.27912343 -0.073915526
0.21315573 -0.29271442 0.07678395 -0.30177787 0.249946 -0.2186895 -0.12537956 -0.43381566
0.00067669846 0.4737764 0.24171126 -0.26732334 0.0067243576 -0.054824233 -0.4025371 0.39204556
0.008060336 0.10529852 -0.20191449 -0.23395956 0.081377365 0.18379949 0.111079484 -0.24147138
0.4854489 -0.0736022 -0.30620754 -0.23385632 0.4922104 2.4080276e-05 -0.06787211 -0.20808089
-0.1310727 -0.42111427 -0.39734173 0.29264474 0.42772472 0.4771502 -0.36097115 0.27043164
-0.31043747 0.29733726 0.35982004 0.3863706 0.35897547 0.3117479 0.008679442 0.22923252
-0.17888546 0.21771741 -0.16070098 -0.008395672 -0.43518943 -0.1307373 -0.26293647 -0.1686604
-0.3190653 -0.4495731 0.032790434 0.32487026 0.45537472 0.29177707 -0.25916868 -0.49450487
0.18965691 0.28015697 -0.42925602 0.17929304 0.4227386 0.030288279 -0.30122942 0.40993816
0.21350795 0.33110058 -0.33814275 0.29097277 -0.34153682 0.49474716 -0.21184987 0.30128354
0.10012078 0.13250524 -0.0766775 0.20536768 -0.20838594 -0.47128963 -0.19210154 0.3917693
-0.13163483 0.15715921 -0.18486321 0.37507463 0.29924512 0.17650682 -0.25558084 -0.40856493
0.019699534 -0.29246542 0.41197515 -0.47987804 0.2224866 0.4975209 0.2494637 0.16992068
-0.48107332 0.4809466 -0.085523784 -0.4672042 0.4935814 -0.20346534 -0.035373807 0.45763975
-0.34754452 -0.35467774 0.08036152 -0.06749755 0.11558768 -0.41896954 0.015519596 -0.22289169
-0.24674292 -0.4587455 0.26416773 0.09574438 -0.4218333 0.39765292 0.1517021 0.09338386
00000000: 3a86 ffbd 50da 46be 4cb6 e53e a24c 873e
00000010: 0caa e63e 87d9 263a e483 cc3d b6f9 303e
00000020: 4e51 f2be 20e1 363d a0fd 08bd 0687 8fbe
00000030: 132e c6be 4516 e33e ee9b d03e 6ae7 6d3e
00000040: b649 f43e 0cc6 4fbe 38de b0bd 4cda 413e
00000050: 2831 a9bd c8f1 c8bd 8899 d3be f88d 093e
00000060: 1344 9abe d1ee 9b3c 9309 fa3e 5ff8 1cbe
00000070: d060 21be b672 9a3e 0c3d 3cbe 80e0 2fbd
00000080: 7c09 ef3e 14e8 51be 2025 b7be d044 8fbe
00000090: 24f3 0dbe 80f1 72be b6d8 84be d0d1 4e3e
000000a0: 2804 ae3d 1cdf 23be aae3 c6be 5035 21be
000000b0: 8415 58be 509d 26be 88f1 e6be 7099 dc3d
000000c0: d816 bcbe 625f c7be 1629 d1be 50b3 553e
000000d0: 9cfd 99be 2315 53be 8bcb c83e 8867 883e
000000e0: c4c9 923e dc12 f3be da93 b7be 2049 41be
000000f0: 227b d33e e082 513d 3076 bfbe 0030 4d3b
00000100: e6d3 c6be 905b e0bd 88c9 0cbe 009c dd3e
00000110: f972 1f3e f4d9 b0bd e6b7 ae3d 9327 13be
00000120: 482c 483e 628c 493e 3180 083e bb22 48be
00000130: 1668 da3e b8d5 93bd 8454 47be 1e56 a03e
00000140: 042c d03e c048 fe3e 51b7 163e 791f 2fbe
00000150: 3605 823e e8a2 db3e f217 fbbe 70b8 7dbd
00000160: 8623 aebe 3696 c03d d7a5 543e 0c4a d2bd
00000170: 7054 2bbd ec74 663e 781a acbd cafb d6be
00000180: b6d5 cc3e 38d9 80be 80fd 60bd 302e 413d
00000190: 2c20 febc ce4e f1be 18e8 693e 5022 69be
000001a0: e0c6 84be 40a6 f43d c098 85be 30a0 6cbe
000001b0: b484 2cbe d058 40be 94d4 55be 4414 0abe
000001c0: 700e 053e e828 cfbe a6f3 9abe 0011 ef3b
000001d0: e067 8e3d 0a63 8d3e 5ed3 b3be c86d 233e
000001e0: fe81 913e 8825 8e3e a471 eebe a061 43be
000001f0: 53ba dbbe 35af a1be 44e9 8e3e 0661 97bd
00000200: 7f45 5a3e aade 95be e740 9d3d a182 9abe
00000210: d8f1 7f3e 24f0 5fbe 8063 00be 161d debe
00000220: 7764 313a d292 f23e 2883 773e 9bde 88be
00000230: 0058 dc3b 608f 60bd 5819 cebe 32ba c83e
00000240: 800f 043c c0a6 d73d acc2 4ebe 1893 6fbe
00000250: 2da9 a63d ef35 3c3e a47d e33d 4644 77be
00000260: c28c f83e c0bc 96bd 3cc7 9cbe 0878 6fbe
00000270: 0003 fc3e 0000 ca37 8800 8bbd 2813 55be
00000280: ec37 06be 4a9c d7be 6070 cbbe 88d5 953e
00000290: bcfe da3e 084d f43e 36d1 b8be 0476 8a3e
000002a0: a9f1 9ebe 973c 983e 553a b83e 5ed2 c53e
000002b0: a2cb b73e 6c9d 9f3e 3834 0e3c eebb 6a3e
000002c0: c02d 37be 50f1 5e3e cc8e 24be 008e 09bc
000002d0: 26d1 debe 00e0 05be 9c9f 86be 50b5 2cbe
000002e0: 875c a3be 722e e6be 434f 063d 6555 a63e
000002f0: e026 e93e ce63 953e c2b1 84be be2f fdbe
00000300: 6c35 423e bc70 8f3e 72c7 dbbe 9898 373e
00000310: 3271 d83e 201f f83c be3a 9abe 6ae3 d13e
00000320: d4a1 5a3e 0486 a93e 0c21 adbe 62fa 943e
00000330: eadd aebe 804f fd3e 2cef 58be d641 9a3e
00000340: 200c cd3d 74af 073e 1809 9dbd e84b 523e
00000350: 2063 55be e04c f1be 44b6 44be fc95 c83e
00000360: 48cb 06be 58ee 203e c84c 3dbe c809 c03e
00000370: a836 993e 34be 343e 7edb 82be 6c2f d1be
00000380: eb60 a13c 07be 95be 68ee d23e 93b2 f5be
00000390: 87d3 633e 0fbb fe3e 6a73 7f3e b0ff 2d3e
000003a0: 3e4f f6be a23e f63e 1827 afbd 6435 efbe
000003b0: b4b6 fc3e 3859 50be 20e4 10bd c24f ea3e
000003c0: 5bf1 b1be 5298 b5be 9594 a43d 283c 8abd
000003d0: 3cb9 ec3d 2d83 d6be e745 7e3c b83d 64be
000003e0: 2daa 7cbe b1e0 eabe fe40 873e a115 c43d
000003f0: 89fa d7be 2a99 cb3e cc57 1b3e 0a40 bf3d

fc1.bias f4 [128]
-0.071136735 0.14202166 0.022583723 -0.24877699 -0.17214197 -0.005762875 -0.31112525 0.03914249
-0.035302877 0.19398928 0.11833286 0.37419176 -0.01648271 -0.36919785 0.22350448 -0.33791894
-0.06872618 -0.16105326 -0.19069539 -0.18499196 0.45851332 0.28622842 0.13944112 0.4694783
-0.453111 0.07970658 0.3200882 0.33214498 -0.39792687 0.17794478 -0.28484297 -0.01890552
-0.103530616 -0.41748226 -0.47793666 -0.32894897 0.22688526 0.22764595 -0.43488187 -0.18777114
0.008167207 -0.43229127 0.28076863 0.45181164 0.08843088 -0.3715074 0.11682471 0.18150681
0.39592153 -0.26603496 -0.4479549 0.2196753 0.031128168 -0.1629132 -0.20951116 -0.2578079
0.40562776 -0.087221526 0.3606035 0.44632483 0.062389467 0.106946684 -0.034995265 0.34430042
-0.4514867 0.19777495 -0.08146441 0.22830814 -0.0022270083 -0.18426296 -0.053149767 0.27089328
-0.3465783 -0.3151672 -0.1119982 -0.18136227 0.1964196 0.33553782 -0.05457404 0.471718
-0.20890999 -0.28158227 -0.2247931 -0.34547672 -0.3504669 -0.44550776 -0.44223437 0.1304993
0.304927 0.46942365 0.42678225 -0.027906792 0.09702331 -0.29915988 0.19227327 -0.47942054
0.23583645 0.09076263 0.15271054 0.18307418 -0.22955239 0.4290532 0.23908512 0.3293266
0.066039264 0.31399328 0.33650053 0.22661746 0.3817904 -0.09163471 0.32876807 0.1142565
0.300848 0.48603764 0.113218546 -0.18558347 -0.048848417 0.13981944 0.08430463 -0.13753147
0.3926541 0.29943982 -0.31057686 -0.041758463 -0.047097113 -0.3133654 0.072927475 -0.15349644
00000000: 23b0 91bd 206e 113e 8001 b93c 65bf 7ebe
00000010: fc45 30be 80d6 bcbb cf4b 9fbe e053 203d
00000020: c099 10bd 20a5 463e 8058 f23d 1096 bf3e
00000030: c006 87bc 8007 bdbe 5cde 643e b603 adbe
00000040: 50c0 8cbd 25eb 24be a745 43be 886e 3dbe
00000050: 42c2 ea3e 888c 923e a7c9 0e3e 765f f03e
00000060: 2afe e7be 343d a33d 9ae2 a33e e80e aa3e
00000070: 12bd cbbe 2837 363e f0d6 91be c0df 9abc
00000080: dc07 d4bd 3cc0 d5be 1db4 f4be 006c a8be
00000090: 9c54 683e 051c 693e d6a8 debe 1447 40be
000000a0: c0cf 053c 4855 ddbe e8c0 8f3e db53 e73e
000000b0: 401b b53d 3836 bebe cb41 ef3d ecdc 393e
000000c0: 3ab6 ca3e bc35 88be 585a e5be 90f2 603e
000000d0: 8000 ff3c b8d2 26be 188a 56be 66ff 83be
000000e0: 71ae cf3e 33a1 b2bd 06a1 b83e b084 e43e
000000f0: 198c 7f3d dd06 db3d 3257 0fbd 2548 b03e
00000100: 4429 e7be 8485 4a3e d0d6 a6bd 9cc9 693e
00000110: 00f3 11bb 6eaf 3cbe 92b3 59bd 86b2 8a3e
00000120: b672 b1be 985d a1be 505f e5bd 08b7 39be
00000130: 3822 493e 9dcb ab3e 0789 5fbd 0685 f13e
00000140: 80ec 55be 8d2b 90be 2a30 66be 53e2 b0be
00000150: 6670 b3be 9819 e4be 8b6c e2be 9ca1 053e
00000160: 641f 9c3e 4c58 f03e 3483 da3e c99c e4bc
00000170: 28b4 c63d 7c2b 99be 49e3 443e 9c76 f5be
00000180: 1c7f 713e c2e1 b93d 2760 1c3e cc77 3b3e
00000190: c80f 6bbe dcac db3e bbd2 743e 7f9d a83e
000001a0: 983f 873d bac3 a03e cc49 ac3e 680e 683e
000001b0: 087a c33e fbaa bbbd 4a54 a83e 50ff e93d
000001c0: c008 9a3e edd9 f83e 20df e73d 9809 3ebe
000001d0: 4715 48bd d42c 0f3e e8a7 ac3d 0dd5 0cbe
000001e0: f509 c93e 2d50 993e ee03 9fbe ec0a 2bbd
000001f0: e7e8 40bd 6e71 a0be 005b 953d 2c2e 1dbe

fc2.weight f4 [1, 128]
-0.044703946 -0.027484594 -0.031514738 0.08547501 0.033903293 0.08698414 0.025155608 0.020013884
0.03633588 0.015170315 -0.06936465 -0.052268762 -0.021414602 0.0022479445 0.03329717 0.03403378
0.07011966 0.018898157 -0.02923454 -0.06647036 -0.063807644 -0.05279767 0.02757327 0.04775376
0.07733208 -0.02702632 -0.006972332 -0.026248109 -0.0003229713 0.028372783 -0.0019420214 0.0050093895
0.012098764 0.032917436 -0.025889764 -0.05270576 0.020852985 -0.0095324665 -0.040042393 0.037119836
0.00080160145 -0.01285738 -0.041859712 -0.010672778 -0.07515883 0.020107493 0.0022474087 0.05363727
0.0057072733 0.0070668464 0.024078136 0.067258015 -0.04176859 0.052768297 0.021616392 -0.058965348
0.031695005 -0.052081704 -0.027822956 -0.04213197 -0.05917155 0.0703397 -0.078071564 0.045107543
-0.07862361 -0.009804301 0.005271675 0.06283621 -0.03198717 0.026358373 0.014586569 0.05287734
0.0061581624 0.034014914 -0.053394586 -0.061422035 0.07876088 -0.063477986 -0.014117896 -0.009757952
0.08643321 -0.018171968 -0.06636144 -0.021472784 0.045592573 0.035027433 0.07404201 -0.01809459
0.041634932 -0.08317697 0.03511387 0.041532185 0.057018172 -0.05068561 -0.022670968 0.021383772
-0.062810056 -0.06937509 -0.08410758 0.0049340893 0.054888092 0.022703422 0.005938539 0.031709027
-0.0555436 0.009318425 -0.02195775 -0.04376493 0.077144094 -0.06745325 0.012953159 -0.07671788
-0.0029987271 -0.03834321 0.0290928 -0.049633414 0.05748766 -0.07079559 0.05308919 -0.06546938
0.048257604 -0.036290012 -0.00020590842 -0.015204112 0.05824132 0.028967297 -0.0778882 0.00812647
00000000: 7c1b 37bd 5f27 e1bc 9915 01bd 860d af3d
00000010: 2ede 0a3d be24 b23d 2213 ce3c 28f4 a33c
00000020: efd4 143d ea8c 783c 0e0f 8ebd c517 56bd
00000030: ad6d afbc 4052 133b 9d62 083d 0167 0b3d
00000040: e59a 8f3d 4fd0 9a3c 467d efbc 9d21 88bd
00000050: 95ad 82bd 5f42 58bd 57e1 e13c 7299 433d
00000060: 4860 9e3d 4d66 ddbc 2978 e4bb 4606 d7bc
00000070: 7954 a9b9 0a6e e83c 6d8b feba ce25 a43b
00000080: e539 463c 6fd4 063d c516 d4bc ffe1 57bd
00000090: e1d3 aa3c 102e 1cbc 7e03 24bd f80a 183d
000000a0: 9022 523a c3a7 52bc 1775 2bbd e0dc 2ebc
000000b0: dfec 99bd 78b8 a43c 4349 133b c1b2 5b3d
000000c0: 1404 bb3b 0191 e73b 833f c53c 92be 893d
000000d0: 8b15 2bbd 9223 583d dc14 b13c a685 71bd
000000e0: 9fd2 013d a053 55bd f8ec e3bc 9392 2cbd
000000f0: de5d 72bd 430e 903d fce3 9fbd b0c2 383d
00000100: 6a05 a1bd 38a2 20bc 04be ac3b 45b0 803d
00000110: fb04 03bd 84ed d73c 81fc 6e3c e995 583d
00000120: 69ca c93b 3953 0b3d 48b4 5abd ac95 7bbd
00000130: 624d a13d bf00 82bd bf4e 67bc d1df 1fbc
00000140: e503 b13d 61dd 94bc 82e8 87bd b1e7 afbc
00000150: 47bf 3a3d ed78 0f3d 56a3 973d 1b3b 94bc
00000160: 6489 2a3d b058 aabd 90d3 0f3d a71d 2a3d
00000170: e38b 693d b79b 4fbd 77b8 b9bc 052d af3c
00000180: 8fa2 80bd 8714 8ebd 9840 acbd 24ae a13b
00000190: 56d2 603d 87fc b93c 1398 c23b 53e1 013d
000001a0: b081 63bd 4fac 183c bde0 b3bc db42 33bd
000001b0: b9fd 9d3d ee24 8abd 7d39 543c 441e 9dbd
000001c0: 4b86 44bb c50d 1dbd 0654 ee3c 684c 4bbd
000001d0: 2e78 6b3d 47fd 90bd 0d74 593d cf14 86bd
000001e0: c4a9 453d d6a4 14bd 1fe9 57b9 ab1a 79bc
000001f0: 738e 6e3d d34c ed3c d983 9fbd e324 053c
