checkpoints/ppo_best.pt (torch, 9607 bytes, 7 tensors)

fc1.weight f4 [128, 4]
00000000: ccb8 c33e 667b d43e 20e5 efbd 1c2a eb3e
00000010: b05c e0bd 38a2 ce3d 1045 79be 2858 963e
00000020: 8477 e23e 3204 bbbe 504f df3e 92ca c23d
00000030: 43ed bd3e 9ad9 8d3d a778 783e a370 8dbd
00000040: c658 c53e 385b 973d a405 6fbe 0882 023e
00000050: ace5 6bbe c02c 70bd fcf3 4fbe aed2 a93e
00000060: 2a14 cabe 8c09 6cbe 6c93 10be feec 99be
00000070: b2f2 3a3d d3a3 fdbe 1466 e63e 3840 dabe
00000080: 96a3 c53e c869 aa3d ac3f 26be f831 9e3e
00000090: 7f6b 9c3d 980b ce3e c883 593d 170b 23be
000000a0: 5326 0b3e 5642 09be fb11 593e f558 e53e
000000b0: c930 933e 356b 61be c0fb 923e 9513 b43d
000000c0: 7a01 823e 8608 9cbe a46a fdbe 0cd1 45be
000000d0: f091 c3be a7d8 d23e 460e 153e 5ba3 553e
000000e0: dd81 233e f05e eabb 6f24 c93e 901b b5be
000000f0: ca48 073d 1df0 adbe a677 1f3e f4c0 2ebe
00000100: 1c4c 1b3e f584 d8bd de86 d33e e184 98be
00000110: 7778 99be f67a 99be 0476 e53e 790d 293e
00000120: 1056 f63e 4e45 d3be 98eb fdbe fe48 c8be
00000130: a56a abbe 1ef7 503e 0fed 383e 6e80 d53e
00000140: 5aff 84be b24f afbe 2108 873e 3e86 50be
00000150: d729 9c3e 76d4 efbd 0f3d 933e ac1e c6be
00000160: 9afb 81be bf82 1a3e ee4b d53d 401c 04be
00000170: 0298 983e fa07 ae3e f6a4 b9be 96ab 88be
00000180: d268 ea3e f4c3 2cbe 2c83 35be 48b4 f7be
00000190: 849a 92be 88cc ff3d 3829 87bd aad3 b9be
000001a0: 4028 403c 6ede aebe 8630 d9be 3af8 8cbe
000001b0: 1486 dfbe a278 a2be 1f3a 003f 9d5e c33d
000001c0: 1cc7 1d3e 66c4 eebe 5422 a8be 146c 2abe
000001d0: c01f a03d 8642 e1be 649b 5cbe 5842 99be
000001e0: 009e b53a 5084 3ebe f0ea 0dbd 2479 adbe
000001f0: 98b7 afbe d259 95be 9c41 2fbe 500e cabe
00000200: af70 d73e b10e c8bd a60e dd3e a719 213e
00000210: b0c7 d8be 3829 b13e c8df 0cbe 5043 44be
00000220: 674a d5be 584c ffbe 67e5 103e 77d4 e2bd
00000230: c5ea 483e 294c d1be 81db be3e fd21 bbbe
00000240: cafd b3bd e6b4 d23d 065d 833e 74e2 cd3e
00000250: 7c69 e83e 38c8 cbbe cc84 fe3d 60cc 5dbe
00000260: 0cc5 66bd 1068 c0be 3562 e83e 57ad bcbe
00000270: 8906 883e 1b59 323e 46c8 243e 6131 8bbe
00000280: bf7b e93e 9931 e43d dae8 863d f7d0 e0be
00000290: 84ee 563e 009f 99bd 448f 6abe ece3 db3e
000002a0: b04c e43d 86a3 8dbe 5292 81be 809b c3bc
000002b0: c4f0 8e3e 54d5 02be 3211 92be ac54 2fbe
000002c0: 520b c0be 3702 353e 895b c53e 8fcb f1be
000002d0: 04fe f03d 380a 853e 20dd bc3d 04c4 34be
000002e0: 1ed3 843e 03bd 853e bbdb 3d3e f614 b7bd
000002f0: 0894 07be d018 5b3d d0e4 b4bd 9893 18be
00000300: d1cd a23e 4c2c db3e cc69 51bd 7387 e8bd
00000310: 6b55 bc3b 44a1 00bd adfe f23d 3be8 0d3e
00000320: f3b8 e7be 1a5d 3bbe 5561 d83e 5b05 493e
00000330: a0b9 cbbc 0858 9abe 429f 9cbe fa50 e5be
00000340: cf4f 25be 957c 2e3e 8806 a43e bef4 6d3e
00000350: 284a e2be e4f2 99be b09a a1bd 38a4 f73e
00000360: cf4a 973d ac02 03be 4e69 553e 9e71 41be
00000370: 8cb2 a5be e4d9 ba3e acce 68be 2847 cdbd
00000380: c9e0 fdbe 2a20 ac3e 03c0 c23e e12a 3c3e
00000390: 9080 b2be 18a8 fcbe f6ea cfbe 36e6 be3e
000003a0: 903a 743e c6a1 d63e 7850 853e de02 003e
000003b0: 8071 a0bb 86b0 c2be 6c55 dbbe 0273 efbe
000003c0: e497 513e 2860 7bbe 2815 cebd 5054 93be
000003d0: d098 babd 862e b4be 4046 a7be 00d6 293e
000003e0: 202a 18be 340a 9e3e 0c41 24be 10cb bbbe
000003f0: 68ac b4bd d030 78be 60a4 1cbe fcb5 f3be
0.38226926 0.41500396 -0.11713624 0.45930564 -0.10955179 0.100895345 -0.24342752 0.29364133
0.44231808 -0.36526638 0.43615198 0.095112935 0.3709508 0.0692627 0.24264775 -0.069062494
0.3854429 0.073904455 -0.23341995 0.12744915 -0.23036832 -0.058636427 -0.20307916 0.33168548
-0.3946851 -0.23050517 -0.14118737 -0.30063623 0.04564161 -0.4953905 0.44999754 -0.4262712
0.3860137 0.083209574 -0.16235226 0.30897498 0.07637691 0.4024322 0.053104192 -0.15922199
0.13588838 -0.13404211 0.21198265 0.4479443 0.28748158 -0.22013552 0.28707695 0.087927975
0.25391752 -0.30475253 -0.49495423 -0.19318026 -0.3819728 0.41180918 0.14556226 0.20863096
0.15967508 -0.0071524307 0.3928561 -0.3537259 0.0330284 -0.33972254 0.15572986 -0.17065793
0.15165752 -0.105722345 0.41313833 -0.2978888 -0.2997472 -0.29976624 0.448166 0.16509046
0.48112535 -0.41263813 -0.49593806 -0.3911819 -0.334798 0.20406768 0.1805918 0.41699547
-0.25976068 -0.3424049 0.2637339 -0.2036371 0.3050067 -0.117104456 0.28757522 -0.38695276
-0.2538727 0.15088938 0.10414873 -0.12901402 0.29803473 0.3399046 -0.36258668 -0.2669341
0.45783097 -0.16871625 -0.1772582 -0.4837973 -0.2863351 0.12490183 -0.06599659 -0.362943
0.011728346 -0.34154075 -0.42419833 -0.27533132 -0.4365698 -0.3173266 0.50088686 0.095395304
0.15407985 -0.46634215 -0.3283869 -0.16642791 0.07818556 -0.43996066 -0.21543652 -0.2993343
0.0013856292 -0.1860516 -0.034647882 -0.33881485 -0.34319758 -0.2917009 -0.17114872 -0.39464045
0.42078158 -0.09768427 0.43175238 0.15732442 -0.4233985 0.3460176 -0.13757241 -0.19166303
-0.41658327 -0.49862933 0.1415001 -0.11075681 0.19620807 -0.40878418 0.37276843 -0.36549369
-0.08788641 0.1028841 0.2565691 0.40211833 0.45392978 -0.39801192 0.12427673 -0.21659994
-0.056340262 -0.37579393 0.45387426 -0.36850998 0.26567486 0.17416804 0.16092023 -0.2718611
0.45602223 0.111422725 0.06587382 -0.43909428 0.20989424 -0.0750103 -0.22906214 0.42947328
0.111474395 -0.2766382 -0.25306946 -0.02387786 0.27918065 -0.1277669 -0.28528744 -0.17122144
-0.37508637 0.17676626 0.38546398 -0.47225615 0.117672 0.2598436 0.09221864 -0.17652899
0.2594232 0.26120767 0.18540852 -0.08939545 -0.13240063 0.05349046 -0.08832705 -0.14900053
0.3179765 0.42807233 -0.051126286 -0.1135396 0.0057474873 -0.031403795 0.11864982 0.1385812
-0.45258293 -0.18297234 0.42261758 0.19630949 -0.024868786 -0.30145288 -0.30590254 -0.44788343
-0.16143726 0.17039712 0.32036233 0.23237893 -0.44197202 -0.30068123 -0.078908324 0.48367476
0.073873155 -0.12793988 0.20840952 -0.18890998 -0.32362783 0.36494362 -0.22735089 -0.100233376
-0.4958556 0.3361829 0.38037118 0.18375732 -0.3486371 -0.49346995 -0.40608948 0.37285012
0.23850465 0.41920298 0.26037955 0.12501094 -0.0048963428 -0.38025302 -0.4283861 -0.46767431
0.20468098 -0.245484 -0.10062629 -0.28775263 -0.09111178 -0.35191745 -0.32670784 0.16585541
-0.1485982 0.3086716 -0.16040438 -0.36678362 -0.088219464 -0.2423737 -0.15297079 -0.4759978

fc1.bias f4 [128]
00000000: 785b 1f3e 964b c3be ba30 a1be ae0a d4be
00000010: ce0e df3e a66a f2be 2e1e c13e 1f66 96bc
00000020: 102e 6ebd 4954 9f3e 16f4 36bd 20c2 9f3e
00000030: 8217 b93e 3879 ddbe 8497 463e 937a c43d
00000040: a0fe d83d 9d52 923d 400c 0c3e bdb8 74be
00000050: 0c2f 86bd a905 f43e 5633 ab3e 60e1 99bc
00000060: a2c6 f0be c084 b33c 4854 aebe d9b5 d03e
00000070: 146a 9bbe 70de 13bd f044 e3bd 8839 b63d
00000080: 08b2 f13e 7099 423d 1479 933e 4981 c73e
00000090: b6e0 cd3e 6868 32be 3a32 e8bd cd29 753e
000000a0: af1f 0abe 4cc0 6f3e 00b6 dfbd f2a1 adbe
000000b0: b5d1 4e3e c12a a03d 3eb0 623e 1a55 fe3e
000000c0: 3ef2 ad3e cbe3 f13e bae5 e73c e436 dcbe
000000d0: cecc b2be 3e05 9fbe f3ce e0be c251 80be
000000e0: 80df eabe 8430 ecbe 62c4 99be 9c5f fcbe
000000f0: d022 9dbe e43a 433e 7c84 d53e 0c4d 18be
00000100: cf58 13be 29e6 873e 1c9b 7cbe bc81 70be
00000110: abef 9c3e f942 debe 306b 7a3d 5225 e23e
00000120: 289a af3d 3fa6 093e 9617 95be 000b e2bb
00000130: 6037 e13c 2727 f83d 4459 453e 0e72 de3e
00000140: c932 c4be c08e 753c e53a 7ebe 56b8 c9be
00000150: c0ff 23bd 3457 e1be 3c74 b33e 4cd8 663d
00000160: 28f9 89be bec7 853e 1a49 f2be 88a0 47be
00000170: 8daa cabd 3c89 d9be ccfe a1be 79f7 a3bd
00000180: 663e c23e 1e35 f73e deac a33e 4a12 98be
00000190: 3eb0 a6be d268 df3e 741a 353e 59ff 723c
000001a0: 8094 8a3d 12bf cdbe 08f3 2abe 1fa3 f53e
000001b0: 288d fcbd e078 cdbc 09c7 d3be 4e35 8fbe
000001c0: 0047 27bc 65d4 9fbe 11a2 77bd e3c6 4e3e
000001d0: d469 fabe 7ea7 193e f044 a9be d4e1 79be
000001e0: d08f 443e c9c1 ca3e 7985 0dbe 1c36 52be
000001f0: 007c e7be 5b37 83be be29 e0be 0089 edbd
0.15562236 -0.38143605 -0.31482488 -0.41414398 0.43565983 -0.4734699 0.37718338 -0.018359242
-0.058149397 0.31118992 -0.044666372 0.31202793 0.36150748 -0.43256545 0.19393736 0.09593692
0.10595441 0.071446635 0.13676548 -0.23898597 -0.06551942 0.47660568 0.33437604 -0.018784225
-0.47026545 0.021913886 -0.34048676 0.4076374 -0.3035437 -0.036100805 -0.11097133 0.08897692
0.4720614 0.04750961 0.28803313 0.38965824 0.40210503 -0.1742264 -0.11337705 0.23941727
-0.13488649 0.23413199 -0.109233856 -0.33912617 0.20197184 0.07820655 0.22137544 0.49674302
0.3397388 0.47244105 0.028307784 -0.43010628 -0.3492188 -0.31058687 -0.4390789 -0.25062376
-0.45873642 -0.46130764 -0.3003264 -0.49291694 -0.30690622 0.19065434 0.4170264 -0.14873141
-0.14389347 0.26542786 -0.24668545 -0.2348699 0.30651602 -0.4341047 0.06113738 0.44169098
0.08574325 0.13442324 -0.29119557 -0.006898284 0.027492225 0.12116843 0.19272333 0.43446392
-0.38319996 0.0149876475 -0.24827154 -0.3939845 -0.040038824 -0.44011843 0.35049617 0.05635862
-0.26947904 0.26128954 -0.47321397 -0.19494832 -0.09895811 -0.42487514 -0.31639707 -0.08006186
0.3793823 0.48282713 0.31967825 -0.29701453 -0.32556337 0.4363466 0.17685872 0.014831387
0.067666054 -0.40184838 -0.16694272 0.47976014 -0.12331611 -0.025082052 -0.4136279 -0.27970356
-0.010209799 -0.31216732 -0.060457293 0.20193057 -0.48908865 0.150053 -0.33060408 -0.24402553
0.19195485 0.3960097 -0.13820447 -0.20528454 -0.45211792 -0.2562817 -0.43781847 -0.11598396

fc_mu.weight f4 [1, 128]
00000000: 7dc0 933c b697 a9bd d83b a13d 1481 693d
00000010: 4835 b1bd efeb 2cbd 5d29 ec3c b607 88bc
00000020: 97d0 1dbc cd1a 1dbd d794 943d eb02 44bd
00000030: 791d 963d 97cd ed3b b349 9e3c 4567 903d
00000040: ac22 55bc 30c1 47bd 5737 6abc fbff 953d
00000050: d220 83bd 2e15 b13c 1ab8 aebd 51d1 3d3d
00000060: f9c2 053d ea8f 753b 6f62 1b3d 38d6 d83a
00000070: cb55 483d 724c 8fbd 45aa 54bc 0b9b 203d
00000080: ea71 b73d 5d6b 383d 1c71 80bd b867 8e3d
00000090: 87bb 94bc 1bdd 8dbc 7a58 a1bd f27f 4abc
000000a0: e537 833d 0cf0 493c f0de 52bd 38e1 de3c
000000b0: 2d6f dbbc 3373 a83d 22ef 99bd e3b7 e4bc
000000c0: 78ac abbd 8536 08bd 6600 f13c 7a40 ae3d
000000d0: ec56 863c be76 b13d b466 9a3c 2217 513d
000000e0: d14c 943d 7b51 973d ce46 44bd 676d a63d
000000f0: 7e4f 5b3d 1c48 29bd 1dc4 2cbd 4bd4 97bd
00000100: 9993 c23c 868a 8fbd 1fef 183d e766 f13c
00000110: 4a16 9abd 5f0c d23c f38e ebbb bc62 253d
00000120: e9bb 4f3d 44c5 b0bd 3c03 a63d 77cf 973d
00000130: 9d0c 103d b542 a2bd 36eb f5bc 13d8 d1bc
00000140: d358 adbc 7729 4c3d dafe 093d e995 923d
00000150: 8597 07bd 49ae f33c 2f2e 073d 9287 93bd
00000160: a497 afbd a0db 3bbd 2dd5 773d 583d a7bd
00000170: 7a61 9abd 74d0 4a3d 38b2 493d 570d 983d
00000180: 94a8 88bd ee7c 84bd 3d15 403d ce9a a03d
00000190: f3fa 5e3d 41db 623c 38a3 ee3c 19fe ae3d
000001a0: c396 69bd ad5e 24bd ed3b 7d3d 5a5a 71bd
000001b0: f7a1 47bd 7b24 843d f24d f03c 7eed e93c
000001c0: 5572 19bd ca2f b039 dfda a83d 65ef 52bd
000001d0: d02b 363a bd8c 323d 87ef 79bd 42cd af3d
000001e0: dbe0 34bd 4022 a1bc a830 b7bc fcec 6bbd
000001f0: bca0 b1bd 0182 523d 5d5e c03c ca59 a6bd
0.018036122 -0.0828089 0.078727424 0.057007864 -0.08652741 -0.04221719 0.028828317 -0.01660524
-0.009632251 -0.038355637 0.072549514 -0.047854345 0.0732984 0.0072571742 0.019322252 0.07050947
-0.013008755 -0.048768222 -0.014295421 0.07324215 -0.06402744 0.021616545 -0.08531208 0.046342198
0.032656644 0.0037469813 0.03793567 0.0016543334 0.048909944 -0.06997003 -0.012980049 0.03921036
0.08957274 0.045024265 -0.06271574 0.069533765 -0.018155826 -0.017317345 -0.07878204 -0.012359606
0.064071454 0.012325298 -0.05148214 0.027207002 -0.026786411 0.082250975 -0.07516314 -0.027919715
-0.08382505 -0.03325512 0.029419135 0.08508392 0.01639887 0.086652264 0.0188478 0.05104745
0.07241214 0.07388588 -0.047919087 0.081263356 0.053542607 -0.041328534 -0.042179216 -0.074135385
0.02375202 -0.07008843 0.03733742 0.029468013 -0.075237826 0.025640665 -0.0071886717 0.040377364
0.050716314 -0.086313754 0.08106086 0.07412618 0.03516828 -0.079228796 -0.030019384 -0.025615728
-0.021160519 0.04984423 0.03369031 0.07157499 -0.033103485 0.029746192 0.03300303 -0.07203592
-0.08573845 -0.045863748 0.060506035 -0.08165997 -0.075381234 0.049515203 0.04924223 0.074244194
-0.06672779 -0.06469141 0.046895254 0.07842027 0.054438543 0.0138462195 0.029130563 0.08544559
-0.057028543 -0.040129352 0.061824728 -0.058924057 -0.048738446 0.064522706 0.029334042 0.028555628
-0.03746255 0.00033604942 0.08244871 -0.051497836 0.00069492776 0.04359125 -0.061019447 0.08584072
-0.04415975 -0.019669652 -0.022362068 -0.057599053 -0.08673236 0.051393513 0.023482496 -0.08122595

fc_std.weight f4 [1, 128]
00000000: eae9 b23d 4562 0a3d 1d44 113d 679b 58bd
00000010: 62b7 1ebd dc9a 5abc 516b 84bc 1f16 78bd
00000020: be9c ee3b e0ed 0f3c e75d 37bc a4c2 483c
00000030: 877e 0fbd 4771 bc3c 178a 083d 2cb3 3ebd
00000040: b77e b3bd e580 3d3d 12b8 ac3c e620 38bd
00000050: dd72 ae3d 33bb 23bd 7fa5 743d 2bac 373d
00000060: a1c4 97bd 637e 693d 4071 a6bd 2293 48bd
00000070: d16d 71bc e907 74bd eed6 b03d 343c 91bc
00000080: 4ccc 0f3d 63a2 a1bd db69 503d 0e08 e1bc
00000090: 3ab2 89bd e2c0 533c d764 2f3d 53a7 9c3d
000000a0: 6c21 5dbd 2929 32bd 9436 8b3c 026a c43c
000000b0: 9e31 0b3d ccb6 463d ee2f a4bc 4023 493d
000000c0: cb76 853d 0425 bdbc 9bc9 803d 7ae2 303d
000000d0: 2aab 9f3d b4bc 4dbd 27c7 32bd e35b d1bc
000000e0: 46eb 923b 954b 593d a2ac 4ebd 9041 353d
000000f0: 78bf 01bd ffb5 5a3d 4082 89bb b396 9ebd
00000100: d535 47bd 5b03 83bd bf8e 333d aec3 72bd
00000110: bd50 f1bb 5139 9c3c 438a 46bd e6df d03c
00000120: 63c0 b0bd 5785 81bd 9e06 a4bd 5a04 dbbc
00000130: c6e3 03bd bb5d 4f3c 73e4 85bc 1930 2a3d
00000140: 2bf5 a53d 71e5 013d a8a1 0ebd 0081 a9bd
00000150: 9021 033d fa5f 33bd a03b 383d 7404 723d
00000160: 4fa5 0b3d 36da a93d 78ee ab3d e950 993c
00000170: b8e5 83bd ebba a13d 2bc9 2bbd a002 2bbd
00000180: 1e79 973d 7241 8c3d ebc7 da3c 3e8d b53b
00000190: 6d44 98bd 0c53 16bc d39e ad3d 8764 b83c
000001a0: edf9 f73b fb5a 96bc 9d8b fcbc 85c8 573d
000001b0: 719c b23b 7488 6b3d 2329 80bc 932d 1e3d
000001c0: 4d70 153d c0ed 663c ce7e 633d bcde 623d
000001d0: 81ca a73d cf29 8b3d e724 b9bc 2f41 99bd
000001e0: bd5f 843c f23c 4aba 96db bcbc 1680 72bc
000001f0: bd38 883b be13 843d 8ab9 e13c d18e 00bd
0.08736022 0.033785123 0.03546535 -0.05288258 -0.038749106 -0.013342585 -0.016164454 -0.06056797
0.0072818687 0.008784741 -0.011191822 0.012253437 -0.035032775 0.023003234 0.033334818 -0.04655759
-0.08764403 0.0462655 0.021083865 -0.04495325 0.08518002 -0.03997345 0.059728142 0.044841927
-0.07410551 0.057005297 -0.081270695 -0.04896844 -0.014735655 -0.059577856 0.086347446 -0.017728902
0.035106942 -0.07892301 0.0508822 -0.027469661 -0.06723447 0.012924405 0.042820778 0.07649102
-0.05398695 -0.043496285 0.016993798 0.02397633 0.033982866 0.048514172 -0.020042386 0.049105883
0.065167986 -0.02308894 0.06288453 0.043184735 0.07796319 -0.05022879 -0.043646958 -0.02555651
0.004483613 0.053050596 -0.050457604 0.04425198 -0.03167674 0.05339622 -0.004196435 -0.07743587
-0.048635323 -0.063971244 0.043837305 -0.059268646 -0.007364361 0.0190703 -0.0484717 0.025497388
-0.08630445 -0.06324261 -0.08009075 -0.026735473 -0.032199644 0.012656624 -0.016344285 0.041549776
0.08103403 0.031712953 -0.034822136 -0.08276558 0.03201443 -0.043792702 0.044978738 0.059086278
0.034093197 0.082935736 0.08395094 0.018715339 -0.064403 0.0789698 -0.041939896 -0.04175055
0.07396148 0.0684842 0.026706656 0.005540519 -0.07434926 -0.009175073 0.08477559 0.022508873
0.0075676353 -0.01835393 -0.030828292 0.052681465 0.005450778 0.05750318 -0.015644616 0.03861768
0.03648405 0.01409477 0.055540852 0.055388197 0.081929214 0.06795084 -0.022600604 -0.07483136
0.016158933 -0.000771477 -0.023053925 -0.014801046 0.0041571544 0.06449078 0.027554292 -0.0313862

fc1.weight f4 [128, 4]
00000000: 3a86 ffbd 50da 46be 4cb6 e53e a24c 873e
00000010: 0caa e63e 87d9 263a e483 cc3d b6f9 303e
00000020: 4e51 f2be 20e1 363d a0fd 08bd 0687 8fbe
00000030: 132e c6be 4516 e33e ee9b d03e 6ae7 6d3e
00000040: b649 f43e 0cc6 4fbe 38de b0bd 4cda 413e
00000050: 2831 a9bd c8f1 c8bd 8899 d3be f88d 093e
00000060: 1344 9abe d1ee 9b3c 9309 fa3e 5ff8 1cbe
00000070: d060 21be b672 9a3e 0c3d 3cbe 80e0 2fbd
00000080: 7c09 ef3e 14e8 51be 2025 b7be d044 8fbe
00000090: 24f3 0dbe 80f1 72be b6d8 84be d0d1 4e3e
000000a0: 2804 ae3d 1cdf 23be aae3 c6be 5035 21be
000000b0: 8415 58be 509d 26be 88f1 e6be 7099 dc3d
000000c0: d816 bcbe 625f c7be 1629 d1be 50b3 553e
000000d0: 9cfd 99be 2315 53be 8bcb c83e 8867 883e
000000e0: c4c9 923e dc12 f3be da93 b7be 2049 41be
000000f0: 227b d33e e082 513d 3076 bfbe 0030 4d3b
00000100: e6d3 c6be 905b e0bd 88c9 0cbe 009c dd3e
00000110: f972 1f3e f4d9 b0bd e6b7 ae3d 9327 13be
00000120: 482c 483e 628c 493e 3180 083e bb22 48be
00000130: 1668 da3e b8d5 93bd 8454 47be 1e56 a03e
00000140: 042c d03e c048 fe3e 51b7 163e 791f 2fbe
00000150: 3605 823e e8a2 db3e f217 fbbe 70b8 7dbd
00000160: 8623 aebe 3696 c03d d7a5 543e 0c4a d2bd
00000170: 7054 2bbd ec74 663e 781a acbd cafb d6be
00000180: b6d5 cc3e 38d9 80be 80fd 60bd 302e 413d
00000190: 2c20 febc ce4e f1be 18e8 693e 5022 69be
000001a0: e0c6 84be 40a6 f43d c098 85be 30a0 6cbe
000001b0: b484 2cbe d058 40be 94d4 55be 4414 0abe
000001c0: 700e 053e e828 cfbe a6f3 9abe 0011 ef3b
000001d0: e067 8e3d 0a63 8d3e 5ed3 b3be c86d 233e
000001e0: fe81 913e 8825 8e3e a471 eebe a061 43be
000001f0: 53ba dbbe 35af a1be 44e9 8e3e 0661 97bd
00000200: 7f45 5a3e aade 95be e740 9d3d a182 9abe
00000210: d8f1 7f3e 24f0 5fbe 8063 00be 161d debe
00000220: 7764 313a d292 f23e 2883 773e 9bde 88be
00000230: 0058 dc3b 608f 60bd 5819 cebe 32ba c83e
00000240: 800f 043c c0a6 d73d acc2 4ebe 1893 6fbe
00000250: 2da9 a63d ef35 3c3e a47d e33d 4644 77be
00000260: c28c f83e c0bc 96bd 3cc7 9cbe 0878 6fbe
00000270: 0003 fc3e 0000 ca37 8800 8bbd 2813 55be
00000280: ec37 06be 4a9c d7be 6070 cbbe 88d5 953e
00000290: bcfe da3e 084d f43e 36d1 b8be 0476 8a3e
000002a0: a9f1 9ebe 973c 983e 553a b83e 5ed2 c53e
000002b0: a2cb b73e 6c9d 9f3e 3834 0e3c eebb 6a3e
000002c0: c02d 37be 50f1 5e3e cc8e 24be 008e 09bc
000002d0: 26d1 debe 00e0 05be 9c9f 86be 50b5 2cbe
000002e0: 875c a3be 722e e6be 434f 063d 6555 a63e
000002f0: e026 e93e ce63 953e c2b1 84be be2f fdbe
00000300: 6c35 423e bc70 8f3e 72c7 dbbe 9898 373e
00000310: 3271 d83e 201f f83c be3a 9abe 6ae3 d13e
00000320: d4a1 5a3e 0486 a93e 0c21 adbe 62fa 943e
00000330: eadd aebe 804f fd3e 2cef 58be d641 9a3e
00000340: 200c cd3d 74af 073e 1809 9dbd e84b 523e
00000350: 2063 55be e04c f1be 44b6 44be fc95 c83e
00000360: 48cb 06be 58ee 203e c84c 3dbe c809 c03e
00000370: a836 993e 34be 343e 7edb 82be 6c2f d1be
00000380: eb60 a13c 07be 95be 68ee d23e 93b2 f5be
00000390: 87d3 633e 0fbb fe3e 6a73 7f3e b0ff 2d3e
000003a0: 3e4f f6be a23e f63e 1827 afbd 6435 efbe
000003b0: b4b6 fc3e 3859 50be 20e4 10bd c24f ea3e
000003c0: 5bf1 b1be 5298 b5be 9594 a43d 283c 8abd
000003d0: 3cb9 ec3d 2d83 d6be e745 7e3c b83d 64be
000003e0: 2daa 7cbe b1e0 eabe fe40 873e a115 c43d
000003f0: 89fa d7be 2a99 cb3e cc57 1b3e 0a40 bf3d
-0.124767736 -0.19419217 0.44865644 0.26425654 0.4505161 0.00063648116 0.09986094 0.17282757
-0.47327656 0.04464829 -0.033445 -0.28032702 -0.38707027 0.44352928 0.40743965 0.23232809
0.47712487 -0.20290393 -0.08636135 0.1893093 -0.08261329 -0.09811741 -0.41328073 0.13433063
-0.30130062 0.019034775 0.4883543 -0.15329121 -0.15759587 0.30165642 -0.18382663 -0.04293871
0.46686924 -0.20498687 -0.35770512 -0.27982187 -0.13862282 -0.23724937 -0.25946587 0.20197225
0.084968865 -0.16003078 -0.3884557 -0.15742993 -0.21101958 -0.16270947 -0.4510615 0.107714534
-0.36736178 -0.3893996 -0.4085166 0.20869184 -0.300763 -0.20613532 0.3921779 0.26641488
0.2866956 -0.47475326 -0.3585499 -0.18875551 0.4130488 0.051150203 -0.37394857 0.0031309128
-0.3883354 -0.10954964 -0.13748753 0.4328308 0.15571202 -0.08635321 0.085311696 -0.14370565
0.19548142 0.19682458 0.13330151 -0.19544499 0.42657536 -0.07218498 -0.19465834 0.31315702
0.4065858 0.4966488 0.14718367 -0.1710185 0.253946 0.42897725 -0.49041706 -0.06194347
-0.34011477 0.094036505 0.20766388 -0.102680296 -0.041828573 0.2250554 -0.08403486 -0.41988975
0.40006799 -0.25165725 -0.054929256 0.04716319 -0.0310212 -0.47130436 0.22842443 -0.22766995
-0.2593298 0.11945772 -0.26093102 -0.23107982 -0.16847497 -0.1878388 -0.20881873 -0.13484293
0.12993789 -0.40460896 -0.30264014 0.0072957277 0.06953406 0.27614623 -0.35122198 0.15959847
0.2841949 0.2776301 -0.46571076 -0.1908021 -0.42915592 -0.31578985 0.27912343 -0.073915526
0.21315573 -0.29271442 0.07678395 -0.30177787 0.249946 -0.2186895 -0.12537956 -0.43381566
0.00067669846 0.4737764 0.24171126 -0.26732334 0.0067243576 -0.054824233 -0.4025371 0.39204556
0.008060336 0.10529852 -0.20191449 -0.23395956 0.081377365 0.18379949 0.111079484 -0.24147138
0.4854489 -0.0736022 -0.30620754 -0.23385632 0.4922104 2.4080276e-05 -0.06787211 -0.20808089
-0.1310727 -0.42111427 -0.39734173 0.29264474 0.42772472 0.4771502 -0.36097115 0.27043164
-0.31043747 0.29733726 0.35982004 0.3863706 0.35897547 0.3117479 0.008679442 0.22923252
-0.17888546 0.21771741 -0.16070098 -0.008395672 -0.43518943 -0.1307373 -0.26293647 -0.1686604
-0.3190653 -0.4495731 0.032790434 0.32487026 0.45537472 0.29177707 -0.25916868 -0.49450487
0.18965691 0.28015697 -0.42925602 0.17929304 0.4227386 0.030288279 -0.30122942 0.40993816
0.21350795 0.33110058 -0.33814275 0.29097277 -0.34153682 0.49474716 -0.21184987 0.30128354
0.10012078 0.13250524 -0.0766775 0.20536768 -0.20838594 -0.47128963 -0.19210154 0.3917693
-0.13163483 0.15715921 -0.18486321 0.37507463 0.29924512 0.17650682 -0.25558084 -0.40856493
0.019699534 -0.29246542 0.41197515 -0.47987804 0.2224866 0.4975209 0.2494637 0.16992068
-0.48107332 0.4809466 -0.085523784 -0.4672042 0.4935814 -0.20346534 -0.035373807 0.45763975
-0.34754452 -0.35467774 0.08036152 -0.06749755 0.11558768 -0.41896954 0.015519596 -0.22289169
-0.24674292 -0.4587455 0.26416773 0.09574438 -0.4218333 0.39765292 0.1517021 0.09338386

fc1.bias f4 [128]
00000000: 23b0 91bd 206e 113e 8001 b93c 65bf 7ebe
00000010: fc45 30be 80d6 bcbb cf4b 9fbe e053 203d
00000020: c099 10bd 20a5 463e 8058 f23d 1096 bf3e
00000030: c006 87bc 8007 bdbe 5cde 643e b603 adbe
00000040: 50c0 8cbd 25eb 24be a745 43be 886e 3dbe
00000050: 42c2 ea3e 888c 923e a7c9 0e3e 765f f03e
00000060: 2afe e7be 343d a33d 9ae2 a33e e80e aa3e
00000070: 12bd cbbe 2837 363e f0d6 91be c0df 9abc
00000080: dc07 d4bd 3cc0 d5be 1db4 f4be 006c a8be
00000090: 9c54 683e 051c 693e d6a8 debe 1447 40be
000000a0: c0cf 053c 4855 ddbe e8c0 8f3e db53 e73e
000000b0: 401b b53d 3836 bebe cb41 ef3d ecdc 393e
000000c0: 3ab6 ca3e bc35 88be 585a e5be 90f2 603e
000000d0: 8000 ff3c b8d2 26be 188a 56be 66ff 83be
000000e0: 71ae cf3e 33a1 b2bd 06a1 b83e b084 e43e
000000f0: 198c 7f3d dd06 db3d 3257 0fbd 2548 b03e
00000100: 4429 e7be 8485 4a3e d0d6 a6bd 9cc9 693e
00000110: 00f3 11bb 6eaf 3cbe 92b3 59bd 86b2 8a3e
00000120: b672 b1be 985d a1be 505f e5bd 08b7 39be
00000130: 3822 493e 9dcb ab3e 0789 5fbd 0685 f13e
00000140: 80ec 55be 8d2b 90be 2a30 66be 53e2 b0be
00000150: 6670 b3be 9819 e4be 8b6c e2be 9ca1 053e
00000160: 641f 9c3e 4c58 f03e 3483 da3e c99c e4bc
00000170: 28b4 c63d 7c2b 99be 49e3 443e 9c76 f5be
00000180: 1c7f 713e c2e1 b93d 2760 1c3e cc77 3b3e
00000190: c80f 6bbe dcac db3e bbd2 743e 7f9d a83e
000001a0: 983f 873d bac3 a03e cc49 ac3e 680e 683e
000001b0: 087a c33e fbaa bbbd 4a54 a83e 50ff e93d
000001c0: c008 9a3e edd9 f83e 20df e73d 9809 3ebe
000001d0: 4715 48bd d42c 0f3e e8a7 ac3d 0dd5 0cbe
000001e0: f509 c93e 2d50 993e ee03 9fbe ec0a 2bbd
000001f0: e7e8 40bd 6e71 a0be 005b 953d 2c2e 1dbe
-0.071136735 0.14202166 0.022583723 -0.24877699 -0.17214197 -0.005762875 -0.31112525 0.03914249
-0.035302877 0.19398928 0.11833286 0.37419176 -0.01648271 -0.36919785 0.22350448 -0.33791894
-0.06872618 -0.16105326 -0.19069539 -0.18499196 0.45851332 0.28622842 0.13944112 0.4694783
-0.453111 0.07970658 0.3200882 0.33214498 -0.39792687 0.17794478 -0.28484297 -0.01890552
-0.103530616 -0.41748226 -0.47793666 -0.32894897 0.22688526 0.22764595 -0.43488187 -0.18777114
0.008167207 -0.43229127 0.28076863 0.45181164 0.08843088 -0.3715074 0.11682471 0.18150681
0.39592153 -0.26603496 -0.4479549 0.2196753 0.031128168 -0.1629132 -0.20951116 -0.2578079
0.40562776 -0.087221526 0.3606035 0.44632483 0.062389467 0.106946684 -0.034995265 0.34430042
-0.4514867 0.19777495 -0.08146441 0.22830814 -0.0022270083 -0.18426296 -0.053149767 0.27089328
-0.3465783 -0.3151672 -0.1119982 -0.18136227 0.1964196 0.33553782 -0.05457404 0.471718
-0.20890999 -0.28158227 -0.2247931 -0.34547672 -0.3504669 -0.44550776 -0.44223437 0.1304993
0.304927 0.46942365 0.42678225 -0.027906792 0.09702331 -0.29915988 0.19227327 -0.47942054
0.23583645 0.09076263 0.15271054 0.18307418 -0.22955239 0.4290532 0.23908512 0.3293266
0.066039264 0.31399328 0.33650053 0.22661746 0.3817904 -0.09163471 0.32876807 0.1142565
0.300848 0.48603764 0.113218546 -0.18558347 -0.048848417 0.13981944 0.08430463 -0.13753147
0.3926541 0.29943982 -0.31057686 -0.041758463 -0.047097113 -0.3133654 0.072927475 -0.15349644

fc2.weight f4 [1, 128]
00000000: 7c1b 37bd 5f27 e1bc 9915 01bd 860d af3d
00000010: 2ede 0a3d be24 b23d 2213 ce3c 28f4 a33c
00000020: efd4 143d ea8c 783c 0e0f 8ebd c517 56bd
00000030: ad6d afbc 4052 133b 9d62 083d 0167 0b3d
00000040: e59a 8f3d 4fd0 9a3c 467d efbc 9d21 88bd
00000050: 95ad 82bd 5f42 58bd 57e1 e13c 7299 433d
00000060: 4860 9e3d 4d66 ddbc 2978 e4bb 4606 d7bc
00000070: 7954 a9b9 0a6e e83c 6d8b feba ce25 a43b
00000080: e539 463c 6fd4 063d c516 d4bc ffe1 57bd
00000090: e1d3 aa3c 102e 1cbc 7e03 24bd f80a 183d
000000a0: 9022 523a c3a7 52bc 1775 2bbd e0dc 2ebc
000000b0: dfec 99bd 78b8 a43c 4349 133b c1b2 5b3d
000000c0: 1404 bb3b 0191 e73b 833f c53c 92be 893d
000000d0: 8b15 2bbd 9223 583d dc14 b13c a685 71bd
000000e0: 9fd2 013d a053 55bd f8ec e3bc 9392 2cbd
000000f0: de5d 72bd 430e 903d fce3 9fbd b0c2 383d
00000100: 6a05 a1bd 38a2 20bc 04be ac3b 45b0 803d
00000110: fb04 03bd 84ed d73c 81fc 6e3c e995 583d
00000120: 69ca c93b 3953 0b3d 48b4 5abd ac95 7bbd
00000130: 624d a13d bf00 82bd bf4e 67bc d1df 1fbc
00000140: e503 b13d 61dd 94bc 82e8 87bd b1e7 afbc
00000150: 47bf 3a3d ed78 0f3d 56a3 973d 1b3b 94bc
00000160: 6489 2a3d b058 aabd 90d3 0f3d a71d 2a3d
00000170: e38b 693d b79b 4fbd 77b8 b9bc 052d af3c
00000180: 8fa2 80bd 8714 8ebd 9840 acbd 24ae a13b
00000190: 56d2 603d 87fc b93c 1398 c23b 53e1 013d
000001a0: b081 63bd 4fac 183c bde0 b3bc db42 33bd
000001b0: b9fd 9d3d ee24 8abd 7d39 543c 441e 9dbd
000001c0: 4b86 44bb c50d 1dbd 0654 ee3c 684c 4bbd
000001d0: 2e78 6b3d 47fd 90bd 0d74 593d cf14 86bd
000001e0: c4a9 453d d6a4 14bd 1fe9 57b9 ab1a 79bc
000001f0: 738e 6e3d d34c ed3c d983 9fbd e324 053c
-0.044703946 -0.027484594 -0.031514738 0.08547501 0.033903293 0.08698414 0.025155608 0.020013884
0.03633588 0.015170315 -0.06936465 -0.052268762 -0.021414602 0.0022479445 0.03329717 0.03403378
0.07011966 0.018898157 -0.02923454 -0.06647036 -0.063807644 -0.05279767 0.02757327 0.04775376
0.07733208 -0.02702632 -0.006972332 -0.026248109 -0.0003229713 0.028372783 -0.0019420214 0.0050093895
0.012098764 0.032917436 -0.025889764 -0.05270576 0.020852985 -0.0095324665 -0.040042393 0.037119836
0.00080160145 -0.01285738 -0.041859712 -0.010672778 -0.07515883 0.020107493 0.0022474087 0.05363727
0.0057072733 0.0070668464 0.024078136 0.067258015 -0.04176859 0.052768297 0.021616392 -0.058965348
0.031695005 -0.052081704 -0.027822956 -0.04213197 -0.05917155 0.0703397 -0.078071564 0.045107543
-0.07862361 -0.009804301 0.005271675 0.06283621 -0.03198717 0.026358373 0.014586569 0.05287734
0.0061581624 0.034014914 -0.053394586 -0.061422035 0.07876088 -0.063477986 -0.014117896 -0.009757952
0.08643321 -0.018171968 -0.06636144 -0.021472784 0.045592573 0.035027433 0.07404201 -0.01809459
0.041634932 -0.08317697 0.03511387 0.041532185 0.057018172 -0.05068561 -0.022670968 0.021383772
-0.062810056 -0.06937509 -0.08410758 0.0049340893 0.054888092 0.022703422 0.005938539 0.031709027
-0.0555436 0.009318425 -0.02195775 -0.04376493 0.077144094 -0.06745325 0.012953159 -0.07671788
-0.0029987271 -0.03834321 0.0290928 -0.049633414 0.05748766 -0.07079559 0.05308919 -0.06546938
0.048257604 -0.036290012 -0.00020590842 -0.015204112 0.05824132 0.028967297 -0.0778882 0.00812647
