checkpoints/ppo_actor_ep80.pt (torch, 5527 bytes, 4 tensors)

fc1.weight f4 [128, 4]
00000000: ccb8 c33e 667b d43e 20e5 efbd 1c2a eb3e
00000010: b05c e0bd 38a2 ce3d 1045 79be 2858 963e
00000020: 1b1b e33e 7260 babe 1af4 df3e e850 c53d
00000030: d190 be3e 8268 903d 2ac2 793e 77ea 8abd
00000040: c658 c53e 385b 973d a405 6fbe 0882 023e
00000050: ace5 6bbe c02c 70bd fcf3 4fbe aed2 a93e
00000060: 2a14 cabe 8c09 6cbe 6c93 10be feec 99be
00000070: 72d1 353d 2248 febe cac0 e53e 6be2 dabe
00000080: 96a3 c53e c869 aa3d ac3f 26be f831 9e3e
00000090: d3db 993d 8867 cd3e 335b 543d f04e 24be
000000a0: 886d 0c3e d1fa 07be 8c5b 5a3e 8bfa e53e
000000b0: ea8c 923e 43b3 62be b656 923e 098c b13d
000000c0: 7a01 823e 8608 9cbe a46a fdbe 0cd1 45be
000000d0: a6ef c2be 1f7b d33e 7355 163e 94e3 563e
000000e0: 62c8 243e 8483 c1bb e6c8 c93e 607a b4be
000000f0: 9865 0c3d 5f4c adbe 35c1 203e d47d 2dbe
00000100: 9403 1a3e a216 dbbd 7be1 d23e 3127 99be
00000110: 551c 9abe fd1e 9abe fbd0 e43e b6c9 273e
00000120: 1056 f63e 4e45 d3be 98eb fdbe fe48 c8be
00000130: 10c7 aabe a33e 523e a036 3a3e 0522 d63e
00000140: 30a3 85be b0f3 afbe 2163 863e ecc9 51be
00000150: 26cd 9c3e 9046 edbd 91e1 933e 6c7d c5be
00000160: 659f 82be d33a 193e 10b8 d23d de5f 05be
00000170: 0298 983e fa07 ae3e f6a4 b9be 96ab 88be
00000180: d268 ea3e f4c3 2cbe 2c83 35be 48b4 f7be
00000190: 849a 92be 88cc ff3d 3829 87bd aad3 b9be
000001a0: 4028 403c 6ede aebe 8630 d9be 3af8 8cbe
000001b0: 8435 dfbe 2427 a2be 2566 003f a772 c43d
000001c0: 1cc7 1d3e 66c4 eebe 5422 a8be 146c 2abe
000001d0: c01f a03d 8642 e1be 649b 5cbe 5842 99be
000001e0: 009e b53a 5084 3ebe f0ea 0dbd 2479 adbe
000001f0: 98b7 afbe d259 95be 9c41 2fbe 500e cabe
00000200: 4a14 d83e 8e7f c5bd 71b3 dd3e d85c 223e
00000210: b0c7 d8be 3829 b13e c8df 0cbe 5043 44be
00000220: 3dee d5be 57f0 ffbe 679b 0f3e d75b e5bd
00000230: f431 4a3e 6ba8 d0be 4680 bf3e 6980 babe
00000240: 488e b6bd ca23 d03d c6b7 823e 4d40 cd3e
00000250: 5fc5 e73e 826c ccbe aeef fb3d b910 5fbe
00000260: 94e3 6bbd 080c c1be 3bbd e73e 2a4f bdbe
00000270: 3f62 873e 3910 313e 747d 233e b8d3 8bbe
00000280: 521f ea3e 96c0 e63d f07b 893d 652f e0be
00000290: 84ee 563e 009f 99bd 448f 6abe ece3 db3e
000002a0: b04c e43d 86a3 8dbe 5292 81be 809b c3bc
000002b0: c4f0 8e3e 54d5 02be 3211 92be ac54 2fbe
000002c0: 52af c0be eab9 333e 66b6 c43e 926d f2be
000002d0: 7e8c f33d f8ad 853e 4c70 bf3d d780 33be
000002e0: 502f 843e 0b19 853e c591 3c3e 3c9c b9bd
000002f0: 0894 07be d018 5b3d d0e4 b4bd 9893 18be
00000300: 461d a23e b47b da3e 01ef 56bd f032 ebbd
00000310: b558 933b 13c2 05bd 4a6a f03d 52a4 0c3e
00000320: 8715 e7be ef15 3abe f305 d93e 1f48 4a3e
00000330: a0b9 cbbc 0858 9abe 429f 9cbe fa50 e5be
00000340: 7709 24be 40c3 2f3e edaa a43e ef36 6f3e
00000350: 284a e2be e4f2 99be b09a a1bd 38a4 f73e
00000360: d0d7 993d d9bb 01be 36b2 563e 422f 40be
00000370: 8cb2 a5be e4d9 ba3e acce 68be 2847 cdbd
00000380: 343d fdbe eac3 ac3e cb64 c33e 036e 3d3e
00000390: 9080 b2be 18a8 fcbe f6ea cfbe 36e6 be3e
000003a0: d0f2 723e bffd d53e 6eab 843e 317e fd3d
000003b0: 8071 a0bb 86b0 c2be 6c55 dbbe 0273 efbe
000003c0: e497 513e 2860 7bbe 2815 cebd 5054 93be
000003d0: d098 babd 862e b4be 4046 a7be 00d6 293e
000003e0: 202a 18be 340a 9e3e 0c41 24be 10cb bbbe
000003f0: 68ac b4bd d030 78be 60a4 1cbe fcb5 f3be
0.38226926 0.41500396 -0.11713624 0.45930564 -0.10955179 0.100895345 -0.24342752 0.29364133
0.44356617 -0.36401707 0.43740922 0.09634572 0.3721986 0.07051183 0.24390474 -0.06783002
0.3854429 0.073904455 -0.23341995 0.12744915 -0.23036832 -0.058636427 -0.20307916 0.33168548
-0.3946851 -0.23050517 -0.14118737 -0.30063623 0.044389196 -0.49664408 0.4487365 -0.42750868
0.3860137 0.083209574 -0.16235226 0.30897498 0.07512631 0.4011805 0.051844787 -0.16045737
0.13713658 -0.13279273 0.21323985 0.44917712 0.28623134 -0.22138695 0.2858178 0.08669288
0.25391752 -0.30475253 -0.49495423 -0.19318026 -0.38073462 0.4130487 0.14681034 0.20985252
0.16092065 -0.0059055705 0.39411086 -0.35249615 0.034276575 -0.3384733 0.15698703 -0.16942531
0.15040427 -0.10697676 0.41187653 -0.29912713 -0.3009974 -0.30101767 0.4469069 0.1638554
0.48112535 -0.41263813 -0.49593806 -0.3911819 -0.33354998 0.20531707 0.181849 0.4182283
-0.26101065 -0.34365606 0.26247504 -0.20487183 0.30625266 -0.11585724 0.2888303 -0.38572252
-0.25512233 0.14963846 0.102890134 -0.13024852 0.29803473 0.3399046 -0.36258668 -0.2669341
0.45783097 -0.16871625 -0.1772582 -0.4837973 -0.2863351 0.12490183 -0.06599659 -0.362943
0.011728346 -0.34154075 -0.42419833 -0.27533132 -0.43595517 -0.31670487 0.5015586 0.09592181
0.15407985 -0.46634215 -0.3283869 -0.16642791 0.07818556 -0.43996066 -0.21543652 -0.2993343
0.0013856292 -0.1860516 -0.034647882 -0.33881485 -0.34319758 -0.2917009 -0.17114872 -0.39464045
0.4220298 -0.0964347 0.43300965 0.1585573 -0.4233985 0.3460176 -0.13757241 -0.19166303
-0.41783324 -0.49988052 0.14024125 -0.11199158 0.19745618 -0.40753493 0.37402552 -0.36426094
-0.08913857 0.10163076 0.25530833 0.4008812 0.4526777 -0.39926535 0.12301575 -0.21783723
-0.057590082 -0.37704492 0.4526156 -0.3697446 0.26442143 0.17291345 0.15965825 -0.27309966
0.4572702 0.112672016 0.06713092 -0.4378616 0.20989424 -0.0750103 -0.22906214 0.42947328
0.111474395 -0.2766382 -0.25306946 -0.02387786 0.27918065 -0.1277669 -0.28528744 -0.17122144
-0.3763376 0.1755139 0.3842041 -0.4734922 0.11892031 0.2610929 0.09347591 -0.17529617
0.25817347 0.2599567 0.18414982 -0.090630025 -0.13240063 0.05349046 -0.08832705 -0.14900053
0.3166296 0.42672503 -0.052474026 -0.11484325 0.0044966587 -0.032655787 0.11739023 0.13734558
-0.45133612 -0.1817243 0.4238735 0.19754075 -0.024868786 -0.30145288 -0.30590254 -0.44788343
-0.16019236 0.17164326 0.32161656 0.23360799 -0.44197202 -0.30068123 -0.078908324 0.48367476
0.07511866 -0.12669314 0.2096642 -0.18768027 -0.32362783 0.36494362 -0.22735089 -0.100233376
-0.49460757 0.3374322 0.38162836 0.18498997 -0.3486371 -0.49346995 -0.40608948 0.37285012
0.23725438 0.41795155 0.2591204 0.12377585 -0.0048963428 -0.38025302 -0.4283861 -0.46767431
0.20468098 -0.245484 -0.10062629 -0.28775263 -0.09111178 -0.35191745 -0.32670784 0.16585541
-0.1485982 0.3086716 -0.16040438 -0.36678362 -0.088219464 -0.2423737 -0.15297079 -0.4759978

fc1.bias f4 [128]
00000000: 785b 1f3e 964b c3be fc8c a0be f966 d3be
00000010: ce0e df3e a66a f2be 2e1e c13e caaa a0bc
00000020: 102e 6ebd 3fb0 9e3e 28d6 31bd 1d1e 9f3e
00000030: 8217 b93e c8d6 dcbe 52de 473e 8409 c73d
00000040: 0d6d d63d 90c2 8f3d 400c 0c3e 4071 73be
00000050: f5be 88bd 1ca9 f43e 678f aa3e 60e1 99bc
00000060: a2c6 f0be c084 b33c 4854 aebe 4607 d13e
00000070: 146a 9bbe 70de 13bd f044 e3bd 8839 b63d
00000080: c855 f23e 7099 423d 1cd5 923e 0325 c83e
00000090: 773c cd3e f2b0 33be 0ec2 eabd f6e0 733e
000000a0: 3dd8 08be 4cc0 6f3e 00b6 dfbd f2a1 adbe
000000b0: 7089 4d3e c5b9 a23d 5268 613e 1a55 fe3e
000000c0: 9d41 ad3e b73f f13e da1e f23c e436 dcbe
000000d0: 7f29 b2be 3e05 9fbe 922b e0be c251 80be
000000e0: c63b eabe 8430 ecbe 6568 9abe 9c5f fcbe
000000f0: d022 9dbe e43a 433e 7c84 d53e 0c4d 18be
00000100: d211 12be 3642 873e 1c9b 7cbe 9c3a 6fbe
00000110: ba4b 9c3e 779f ddbe 306b 7a3d 5225 e23e
00000120: 289a af3d 5d5e 083e 9617 95be 000b e2bb
00000130: 6037 e13c 5497 f53d 1011 443e 4e72 de3e
00000140: fad6 c4be c08e 753c aff3 7cbe 9c14 c9be
00000150: c0ff 23bd 3457 e1be d117 b43e 97b8 613d
00000160: 28f9 89be bec7 853e 1a49 f2be 6ce8 48be
00000170: 643a cdbd 3c89 d9be 1f5b a1be 8068 a1bd
00000180: 663e c23e 1e35 f73e 8750 a43e 8c6e 97be
00000190: 8b0c a6be d268 df3e 741a 353e d7bb 833c
000001a0: 8094 8a3d 12bf cdbe 08f3 2abe 23ff f43e
000001b0: 288d fcbd e078 cdbc fa24 d3be 4e35 8fbe
000001c0: 0047 27bc b37e a0be 0484 72bd e37e 4d3e
000001d0: d469 fabe d5ee 1a3e f044 a9be d4e1 79be
000001e0: d08f 443e 931d ca3e d6cd 0ebe 1c36 52be
000001f0: 007c e7be ab93 82be be29 e0be d018 f0bd
0.15562236 -0.38143605 -0.31357563 -0.412895 0.43565983 -0.4734699 0.37718338 -0.019612689
-0.058149397 0.3099384 -0.043417126 0.31077662 0.36150748 -0.43132615 0.19518402 0.09718612
0.104700185 0.07019532 0.13676548 -0.2377367 -0.06677047 0.4778527 0.33312532 -0.018784225
-0.47026545 0.021913886 -0.34048676 0.40825862 -0.3035437 -0.036100805 -0.11097133 0.08897692
0.4733107 0.04750961 0.28678215 0.39090738 0.40085194 -0.17547968 -0.11462794 0.23816285
-0.13363738 0.23413199 -0.109233856 -0.33912617 0.2007196 0.07945589 0.22012451 0.49674302
0.3383912 0.47118923 0.029555727 -0.43010628 -0.34797284 -0.31058687 -0.43783242 -0.25062376
-0.4574873 -0.46130764 -0.30157772 -0.49291694 -0.30690622 0.19065434 0.4170264 -0.14873141
-0.1426461 0.26417702 -0.24668545 -0.23362201 0.30526525 -0.43285725 0.06113738 0.44169098
0.08574325 0.13317247 -0.29119557 -0.006898284 0.027492225 0.11991754 0.19147134 0.43446583
-0.38445264 0.0149876475 -0.24702333 -0.39273536 -0.040038824 -0.44011843 0.3517442 0.05510768
-0.26947904 0.26128954 -0.47321397 -0.19619912 -0.10020903 -0.42487514 -0.31514832 -0.0788126
0.3793823 0.48282713 0.32092687 -0.29576528 -0.32431445 0.4363466 0.17685872 0.01608078
0.067666054 -0.40184838 -0.16694272 0.47850904 -0.12331611 -0.025082052 -0.41239148 -0.27970356
-0.010209799 -0.31346664 -0.05920793 0.20067935 -0.48908865 0.1513017 -0.33060408 -0.24402553
0.19195485 0.39475688 -0.13945708 -0.20528454 -0.45211792 -0.25503287 -0.43781847 -0.117234826

fc_mu.weight f4 [1, 128]
00000000: 7dc0 933c b697 a9bd 47cf a33d 4aa7 6e3d
00000010: 4835 b1bd efeb 2cbd 5d29 ec3c 7170 7bbc
00000020: 97d0 1dbc 8ef5 17bd 3728 973d b4db 3ebd
00000030: 791d 963d 5581 0b3c 4b97 a83c 0dfb 923d
00000040: c185 40bc 5399 42bd 5737 6abc 7f93 983d
00000050: 978c 80bd 6162 bb3c 1d24 acbd 51d1 3d3d
00000060: f9c2 053d ea8f 753b 6f62 1b3d 5ae5 3e3b
00000070: cb55 483d 724c 8fbd 45aa 54bc 0b9b 203d
00000080: 3905 ba3d 5d6b 383d 95b6 7bbd 49fb 903d
00000090: 0a6d 8abc 018e 83bc a6c4 9ebd 3ce6 35bc
000000a0: d1c9 853d 0cf0 493c f0de 52bd 38e1 de3c
000000b0: 3220 d1bc b505 ab3d fa5b 97bd e3b7 e4bc
000000c0: 642d a9bd ea0e 03bd a44f fb3c 7a40 ae3d
000000d0: c2a4 903c be76 b13d b6b4 a43c 2217 513d
000000e0: 5ae0 963d 7b51 973d 6820 3fbd 676d a63d
000000f0: 7e4f 5b3d 1c48 29bd 1dc4 2cbd 4bd4 97bd
00000100: 91e1 cc3c e5f6 8cbd 1fef 183d d3b6 fb3c
00000110: f882 97bd 365b dc3c f38e ebbb bc62 253d
00000120: e9bb 4f3d 0c30 aebd 3c03 a63d 77cf 973d
00000130: 9d0c 103d 0baf 9fbd 589c ebbc f789 d2bc
00000140: 1709 a3bc 7729 4c3d 7826 0f3d 242a 953d
00000150: 8597 07bd 49ae f33c ca55 0c3d 7af3 90bd
00000160: a497 afbd a0db 3bbd 2dd5 773d 15aa a4bd
00000170: a6cd 97bd 74d0 4a3d e0d8 4e3d b9a0 9a3d
00000180: 94a8 88bd ee7c 84bd a43a 453d b02e a33d
00000190: 361f 643d 41db 623c 38a3 ee3c 3791 b13d
000001a0: c396 69bd ad5e 24bd ed3b 7d3d f032 6cbd
000001b0: f7a1 47bd 7b24 843d 627c f93c 7eed e93c
000001c0: 5572 19bd 0927 d13a 496d ab3d 22c8 4dbd
000001d0: d02b 363a e9b2 373d 87ef 79bd 42cd af3d
000001e0: dbe0 34bd 48d1 96bc dce5 acbc fcec 6bbd
000001f0: bca0 b1bd 87aa 573d 5d5e c03c 91c3 a3bd
0.018036122 -0.0828089 0.079985194 0.058265008 -0.08652741 -0.04221719 0.028828317 -0.015346632
-0.009632251 -0.037099414 0.07380717 -0.046596244 0.0732984 0.008514722 0.020579955 0.071767904
-0.011750639 -0.047509503 -0.014295421 0.07450008 -0.062768154 0.02287406 -0.084053256 0.046342198
0.032656644 0.0037469813 0.03793567 0.0029128403 0.048909944 -0.06997003 -0.012980049 0.03921036
0.090830274 0.045024265 -0.06145342 0.07079179 -0.016897697 -0.016058924 -0.077523515 -0.011102255
0.06532634 0.012325298 -0.05148214 0.027207002 -0.025528047 0.08350698 -0.0739059 -0.027919715
-0.08260611 -0.031996645 0.030677624 0.08508392 0.017656688 0.086652264 0.020105701 0.05104745
0.073670104 0.07388588 -0.046661764 0.081263356 0.053542607 -0.041328534 -0.042179216 -0.074135385
0.025009902 -0.06883029 0.03733742 0.030726826 -0.07398027 0.026898962 -0.0071886717 0.040377364
0.050716314 -0.08505258 0.08106086 0.07412618 0.03516828 -0.07797059 -0.028761074 -0.025700552
-0.019901795 0.04984423 0.034948796 0.07283428 -0.033103485 0.029746192 0.034261502 -0.070776895
-0.08573845 -0.045863748 0.060506035 -0.08040253 -0.07412271 0.049515203 0.050499797 0.07550187
-0.06672779 -0.06469141 0.048151627 0.07967889 0.055693828 0.0138462195 0.029130563 0.08670276
-0.057028543 -0.040129352 0.061824728 -0.057665765 -0.048738446 0.064522706 0.030454818 0.028555628
-0.03746255 0.0015957068 0.08370454 -0.05023969 0.00069492776 0.044848356 -0.061019447 0.08584072
-0.04415975 -0.01841034 -0.0211057 -0.057599053 -0.08673236 0.052652862 0.023482496 -0.07996286

fc_std.weight f4 [1, 128]
00000000: eae9 b23d 4562 0a3d 1d44 113d 679b 58bd
00000010: 62b7 1ebd dc9a 5abc 516b 84bc 1f16 78bd
00000020: be9c ee3b e0ed 0f3c e75d 37bc a4c2 483c
00000030: 877e 0fbd 4771 bc3c 178a 083d 2cb3 3ebd
00000040: b77e b3bd e580 3d3d 12b8 ac3c e620 38bd
00000050: dd72 ae3d 33bb 23bd 7fa5 743d 2bac 373d
00000060: a1c4 97bd 637e 693d 4071 a6bd 2293 48bd
00000070: d16d 71bc e907 74bd eed6 b03d 343c 91bc
00000080: 4ccc 0f3d 63a2 a1bd db69 503d 0e08 e1bc
00000090: 3ab2 89bd e2c0 533c d764 2f3d 53a7 9c3d
000000a0: 6c21 5dbd 2929 32bd 9436 8b3c 026a c43c
000000b0: 9e31 0b3d ccb6 463d ee2f a4bc 4023 493d
000000c0: cb76 853d 0425 bdbc 9bc9 803d 7ae2 303d
000000d0: 2aab 9f3d b4bc 4dbd 27c7 32bd e35b d1bc
000000e0: 46eb 923b 954b 593d a2ac 4ebd 9041 353d
000000f0: 78bf 01bd ffb5 5a3d 4082 89bb b396 9ebd
00000100: d535 47bd 5b03 83bd bf8e 333d aec3 72bd
00000110: bd50 f1bb 5139 9c3c 438a 46bd e6df d03c
00000120: 63c0 b0bd 5785 81bd 9e06 a4bd 5a04 dbbc
00000130: c6e3 03bd bb5d 4f3c 73e4 85bc 1930 2a3d
00000140: 2bf5 a53d 71e5 013d a8a1 0ebd 0081 a9bd
00000150: 9021 033d fa5f 33bd a03b 383d 7404 723d
00000160: 4fa5 0b3d 36da a93d 78ee ab3d e950 993c
00000170: b8e5 83bd ebba a13d 2bc9 2bbd a002 2bbd
00000180: 1e79 973d 7241 8c3d ebc7 da3c 3e8d b53b
00000190: 6d44 98bd 0c53 16bc d39e ad3d 8764 b83c
000001a0: edf9 f73b fb5a 96bc 9d8b fcbc 85c8 573d
000001b0: 719c b23b 7488 6b3d 2329 80bc 932d 1e3d
000001c0: 4d70 153d c0ed 663c ce7e 633d bcde 623d
000001d0: 81ca a73d cf29 8b3d e724 b9bc 2f41 99bd
000001e0: bd5f 843c f23c 4aba 96db bcbc 1680 72bc
000001f0: bd38 883b be13 843d 8ab9 e13c d18e 00bd
0.08736022 0.033785123 0.03546535 -0.05288258 -0.038749106 -0.013342585 -0.016164454 -0.06056797
0.0072818687 0.008784741 -0.011191822 0.012253437 -0.035032775 0.023003234 0.033334818 -0.04655759
-0.08764403 0.0462655 0.021083865 -0.04495325 0.08518002 -0.03997345 0.059728142 0.044841927
-0.07410551 0.057005297 -0.081270695 -0.04896844 -0.014735655 -0.059577856 0.086347446 -0.017728902
0.035106942 -0.07892301 0.0508822 -0.027469661 -0.06723447 0.012924405 0.042820778 0.07649102
-0.05398695 -0.043496285 0.016993798 0.02397633 0.033982866 0.048514172 -0.020042386 0.049105883
0.065167986 -0.02308894 0.06288453 0.043184735 0.07796319 -0.05022879 -0.043646958 -0.02555651
0.004483613 0.053050596 -0.050457604 0.04425198 -0.03167674 0.05339622 -0.004196435 -0.07743587
-0.048635323 -0.063971244 0.043837305 -0.059268646 -0.007364361 0.0190703 -0.0484717 0.025497388
-0.08630445 -0.06324261 -0.08009075 -0.026735473 -0.032199644 0.012656624 -0.016344285 0.041549776
0.08103403 0.031712953 -0.034822136 -0.08276558 0.03201443 -0.043792702 0.044978738 0.059086278
0.034093197 0.082935736 0.08395094 0.018715339 -0.064403 0.0789698 -0.041939896 -0.04175055
0.07396148 0.0684842 0.026706656 0.005540519 -0.07434926 -0.009175073 0.08477559 0.022508873
0.0075676353 -0.01835393 -0.030828292 0.052681465 0.005450778 0.05750318 -0.015644616 0.03861768
0.03648405 0.01409477 0.055540852 0.055388197 0.081929214 0.06795084 -0.022600604 -0.07483136
0.016158933 -0.000771477 -0.023053925 -0.014801046 0.0041571544 0.06449078 0.027554292 -0.0313862
