checkpoints/ppo_critic_ep80.pt (torch, 4511 bytes, 3 tensors)

fc1.weight f4 [128, 4]
-0.17175792 -0.23250052 0.43778393 0.31982478 0.41425374 -0.029692201 0.08878669 0.21517546
-0.47327656 0.04464829 -0.033445 -0.28032702 -0.33004305 0.49018946 0.4182983 0.16312854
0.47712487 -0.20290393 -0.08636135 0.1893093 -0.08261329 -0.09811741 -0.41328073 0.13433063
-0.23779698 0.07128437 0.49937275 -0.22966285 -0.15759587 0.30165642 -0.18382663 -0.04293871
0.46686924 -0.20498687 -0.35770512 -0.27982187 -0.13862282 -0.23724937 -0.25946587 0.20197225
0.084968865 -0.16003078 -0.3884557 -0.15742993 -0.21101958 -0.16270947 -0.4510615 0.107714534
-0.36736178 -0.3893996 -0.4085166 0.20869184 -0.20366439 -0.12274425 0.40604007 0.17419866
0.2866956 -0.47475326 -0.3585499 -0.18875551 0.4130488 0.051150203 -0.37394857 0.0031309128
-0.3883354 -0.10954964 -0.13748753 0.4328308 0.22383823 -0.030248202 0.09643197 -0.22405665
0.15616785 0.16433263 0.12228548 -0.1503635 0.42657536 -0.07218498 -0.19465834 0.31315702
0.360082 0.4584745 0.13631593 -0.11474289 0.253946 0.42897725 -0.49041706 -0.06194347
-0.27756357 0.14548378 0.21863529 -0.17822202 -0.041828573 0.2250554 -0.08403486 -0.41988975
0.40006799 -0.25165725 -0.054929256 0.04716319 -0.07511162 -0.5070745 0.21751182 -0.177689
-0.2593298 0.11945772 -0.26093102 -0.23107982 -0.16847497 -0.1878388 -0.20881873 -0.13484293
0.12993789 -0.40460896 -0.30264014 0.0072957277 0.06953406 0.27614623 -0.35122198 0.15959847
0.2841949 0.2776301 -0.46571076 -0.1908021 -0.347677 -0.24682091 0.2913377 -0.16298676
0.28564772 -0.23262869 0.08811163 -0.38583305 0.249946 -0.2186895 -0.12537956 -0.43381566
-0.037454043 0.44227567 0.23062861 -0.22513479 0.0067243576 -0.054824233 -0.4025371 0.39204556
0.008060336 0.10529852 -0.20191449 -0.23395956 0.088434085 0.18547048 0.09933378 -0.26714835
0.4854489 -0.0736022 -0.30620754 -0.23385632 0.4922104 2.4080276e-05 -0.06787211 -0.20808089
-0.1310727 -0.42111427 -0.39734173 0.29264474 0.42772472 0.4771502 -0.36097115 0.27043164
-0.35640493 0.2598158 0.34893185 0.4405551 0.3976075 0.33734268 -0.0010138414 0.1756587
-0.17888546 0.21771741 -0.16070098 -0.008395672 -0.43518943 -0.1307373 -0.26293647 -0.1686604
-0.510999 -0.6076617 0.075481296 0.44533455 0.45537472 0.29177707 -0.25916868 -0.49450487
0.18965691 0.28015697 -0.42925602 0.17929304 0.4227386 0.030288279 -0.30122942 0.40993816
0.21350795 0.33110058 -0.33814275 0.29097277 -0.34153682 0.49474716 -0.21184987 0.30128354
0.10012078 0.13250524 -0.0766775 0.20536768 -0.20838594 -0.47128963 -0.19210154 0.3917693
-0.13163483 0.15715921 -0.18486321 0.37507463 0.29924512 0.17650682 -0.25558084 -0.40856493
0.08147153 -0.24173272 0.42293397 -0.5544206 0.17631291 0.45969972 0.23858373 0.22519147
-0.48107332 0.4809466 -0.085523784 -0.4672042 0.47181264 -0.22523415 -0.057143077 0.43587244
-0.40276632 -0.39919496 0.0696619 -0.0025269703 0.180233 -0.36239728 0.027719697 -0.26070765
-0.2975689 -0.500131 0.25334376 0.15659563 -0.36190462 0.44677356 0.1625965 0.020822683
00000000: 4fe1 2fbe 9e14 6ebe 3725 e03e 13c0 a33e
00000010: 1119 d43e 0f3d f3bc ccd5 b53d f556 5c3e
00000020: 4e51 f2be 20e1 363d a0fd 08bd 0687 8fbe
00000030: 67fb a8be 1dfa fa3e 322b d63e 2b0b 273e
00000040: b649 f43e 0cc6 4fbe 38de b0bd 4cda 413e
00000050: 2831 a9bd c8f1 c8bd 8899 d3be f88d 093e
00000060: 0d81 73be 8afd 913d c9ad ff3e bd2c 6bbe
00000070: d060 21be b672 9a3e 0c3d 3cbe 80e0 2fbd
00000080: 7c09 ef3e 14e8 51be 2025 b7be d044 8fbe
00000090: 24f3 0dbe 80f1 72be b6d8 84be d0d1 4e3e
000000a0: 2804 ae3d 1cdf 23be aae3 c6be 5035 21be
000000b0: 8415 58be 509d 26be 88f1 e6be 7099 dc3d
000000c0: d816 bcbe 625f c7be 1629 d1be 50b3 553e
000000d0: 668d 50be 5661 fbbd 7ce4 cf3e 2261 323e
000000e0: c4c9 923e dc12 f3be da93 b7be 2049 41be
000000f0: 227b d33e e082 513d 3076 bfbe 0030 4d3b
00000100: e6d3 c6be 905b e0bd 88c9 0cbe 009c dd3e
00000110: d935 653e 14cb f7bc 207e c53d 1b6f 65be
00000120: 77ea 1f3e d046 283e cf70 fa3d e4f8 19be
00000130: 1668 da3e b8d5 93bd 8454 47be 1e56 a03e
00000140: ab5c b83e 2bbd ea3e 6796 0b3e 52fe eabd
00000150: 3605 823e e8a2 db3e f217 fbbe 70b8 7dbd
00000160: d01c 8ebe b3f9 143e eee1 5f3e d57f 36be
00000170: 7054 2bbd ec74 663e 781a acbd cafb d6be
00000180: b6d5 cc3e 38d9 80be 80fd 60bd 302e 413d
00000190: 1fd4 99bd a2cf 01bf 6bbb 5e3e 1bf4 35be
000001a0: e0c6 84be 40a6 f43d c098 85be 30a0 6cbe
000001b0: b484 2cbe d058 40be 94d4 55be 4414 0abe
000001c0: 700e 053e e828 cfbe a6f3 9abe 0011 ef3b
000001d0: e067 8e3d 0a63 8d3e 5ed3 b3be c86d 233e
000001e0: fe81 913e 8825 8e3e a471 eebe a061 43be
000001f0: b802 b2be 9fbe 7cbe 372a 953e 00e6 26be
00000200: 6b40 923e 3736 6ebe df73 b43d e98b c5be
00000210: d8f1 7f3e 24f0 5fbe 8063 00be 161d debe
00000220: 6969 19bd f571 e23e e829 6c3e bc89 66be
00000230: 0058 dc3b 608f 60bd 5819 cebe 32ba c83e
00000240: 800f 043c c0a6 d73d acc2 4ebe 1893 6fbe
00000250: ee1c b53d f9eb 3d3e 826f cb3d abc7 88be
00000260: c28c f83e c0bc 96bd 3cc7 9cbe 0878 6fbe
00000270: 0003 fc3e 0000 ca37 8800 8bbd 2813 55be
00000280: ec37 06be 4a9c d7be 6070 cbbe 88d5 953e
00000290: bcfe da3e 084d f43e 36d1 b8be 0476 8a3e
000002a0: b57a b6be 9406 853e 32a7 b23e 7090 e13e
000002b0: 3693 cb3e 2eb8 ac3e dfe2 84ba e0df 333e
000002c0: c02d 37be 50f1 5e3e cc8e 24be 008e 09bc
000002d0: 26d1 debe 00e0 05be 9c9f 86be 50b5 2cbe
000002e0: d5d0 02bf b88f 1bbf f095 9a3d e402 e43e
000002f0: e026 e93e ce63 953e c2b1 84be be2f fdbe
00000300: 6c35 423e bc70 8f3e 72c7 dbbe 9898 373e
00000310: 3271 d83e 201f f83c be3a 9abe 6ae3 d13e
00000320: d4a1 5a3e 0486 a93e 0c21 adbe 62fa 943e
00000330: eadd aebe 804f fd3e 2cef 58be d641 9a3e
00000340: 200c cd3d 74af 073e 1809 9dbd e84b 523e
00000350: 2063 55be e04c f1be 44b6 44be fc95 c83e
00000360: 48cb 06be 58ee 203e c84c 3dbe c809 c03e
00000370: a836 993e 34be 343e 7edb 82be 6c2f d1be
00000380: 8cda a63d c888 77be cd8a d83e 82ee 0dbf
00000390: 5f8b 343e c35d eb3e 4b4f 743e 9898 663e
000003a0: 3e4f f6be a23e f63e 1827 afbd 6435 efbe
000003b0: 6d91 f13e c8a3 66be dc0e 6abd ac2a df3e
000003c0: 6337 cebe 4863 ccbe e6aa 8e3d 879b 25bb
000003d0: 008f 383e 238c b9be 6b14 e33c 797b 85be
000003e0: f35a 98be 9608 00bf 46b6 813e 9b5a 203e
000003f0: 904b b9be 81bf e43e b27f 263e 5594 aa3c

fc1.bias f4 [128]
-0.120349936 0.10424365 0.022583723 -0.18901089 -0.17214197 -0.005762875 -0.24458458 0.03914249
-0.035302877 0.19398928 0.11833286 0.37419176 -0.01648271 -0.26778322 0.22350448 -0.33791894
-0.06872618 -0.08965339 -0.23173882 -0.18499196 0.40986007 0.28622842 0.20498171 0.4694783
-0.453111 0.033515725 0.3200882 0.33214498 -0.39792687 0.17794478 -0.28484297 0.06626495
-0.02760182 -0.41748226 -0.5177361 -0.32894897 0.22688526 0.23605718 -0.43488187 -0.18777114
0.008167207 -0.43229127 0.2326428 0.49401677 0.08843088 -0.3715074 -0.08498164 0.18150681
0.39592153 -0.26603496 -0.4479549 0.2196753 0.031128168 -0.1629132 -0.20951116 -0.2578079
0.47036013 -0.13554107 0.3606035 0.42456126 0.0043951496 0.17408286 -0.08826273 0.40711138
-0.5038037 0.19561349 -0.08146441 0.22830814 -0.0022270083 -0.115801714 0.027670763 0.31933877
-0.26102298 -0.25030676 -0.1119982 -0.18136227 0.1964196 0.28473437 -0.07952868 0.4700439
-0.20890999 -0.31835228 -0.27372757 -0.3805415 -0.3504669 -0.44550776 -0.38202268 0.1304993
0.304927 0.46942365 0.48996156 0.034489404 0.09702331 -0.29915988 0.15220563 -0.47942054
0.23583645 0.03882205 0.10089872 0.18307418 -0.22955239 0.4290532 0.35195252 0.39686236
0.066039264 0.31399328 0.33650053 0.22661746 0.4416917 -0.14318955 0.32876807 0.063647114
0.300848 0.43773773 0.113218546 -0.18558347 0.011985703 0.08745595 0.08430463 -0.1884278
0.45578712 0.2528042 -0.31057686 -0.07172793 0.018581336 -0.3133654 0.072927475 -0.15349644
00000000: 077a f6bd b27d d53d 8001 b93c 128c 41be
00000010: fc45 30be 80d6 bcbb 6174 7abe e053 203d
00000020: c099 10bd 20a5 463e 8058 f23d 1096 bf3e
00000030: c006 87bc e21a 89be 5cde 643e b603 adbe
00000040: 50c0 8cbd 329c b7bd f14c 6dbe 886e 3dbe
00000050: 2ed9 d13e 888c 923e bae6 513e 765f f03e
00000060: 2afe e7be c947 093d 9ae2 a33e e80e aa3e
00000070: 12bd cbbe 2837 363e f0d6 91be ebb5 873d
00000080: 361d e2bc 3cc0 d5be 5a8a 04bf 006c a8be
00000090: 9c54 683e f9b8 713e d6a8 debe 1447 40be
000000a0: c0cf 053c 4855 ddbe ea39 6e3e c4ef fc3e
000000b0: 401b b53d 3836 bebe db0a aebd ecdc 393e
000000c0: 3ab6 ca3e bc35 88be 585a e5be 90f2 603e
000000d0: 8000 ff3c b8d2 26be 188a 56be 66ff 83be
000000e0: 0bd3 f03e 47cb 0abe 06a1 b83e 1860 d93e
000000f0: 3005 903b c742 323e 17c3 b4bd e770 d03e
00000100: 47f9 00bf e74e 483e d0d6 a6bd 9cc9 693e
00000110: 00f3 11bb 7329 edbd ccad e23c 5f80 a33e
00000120: cea4 85be 3528 80be 505f e5bd 08b7 39be
00000130: 3822 493e b4c8 913e efdf a2bd 98a9 f03e
00000140: 80ec 55be 12ff a2be 0526 8cbe 56d6 c2be
00000150: 6670 b3be 9819 e4be 7a98 c3be 9ca1 053e
00000160: 641f 9c3e 4c58 f03e 3edc fa3e c344 0d3d
00000170: 28b4 c63d 7c2b 99be cbdb 1b3e 9c76 f5be
00000180: 1c7f 713e df03 1f3d fda3 ce3d cc77 3b3e
00000190: c80f 6bbe dcac db3e 1f33 b43e 8b31 cb3e
000001a0: 983f 873d bac3 a03e cc49 ac3e 680e 683e
000001b0: 6a25 e23e 48a0 12be 4a54 a83e 6b59 823d
000001c0: c008 9a3e 291f e03e 20df e73d 9809 3ebe
000001d0: af5f 443c 1b1c b33d e8a7 ac3d 38f3 40be
000001e0: ee5c e93e 8d6f 813e ee03 9fbe 18e6 92bd
000001f0: e337 983c 6e71 a0be 005b 953d 2c2e 1dbe

fc2.weight f4 [1, 128]
-0.035339896 -0.01030779 -0.031514738 0.09650822 0.033903293 0.08698414 0.03510654 0.020013884
0.03633588 0.015170315 -0.06936465 -0.052268762 -0.021414602 0.011196137 0.03329717 0.03403378
0.07011966 0.032349262 -0.014732827 -0.06647036 -0.04497883 -0.05279767 0.03693847 0.04775376
0.07733208 -0.020475434 -0.006972332 -0.026248109 -0.0003229713 0.028372783 -0.0019420214 0.011592837
0.023459498 0.032917436 -0.012805807 -0.05270576 0.020852985 0.0047214986 -0.040042393 0.037119836
0.00080160145 -0.01285738 -0.031381343 0.030779727 -0.07515883 0.020107493 -0.14808875 0.05363727
0.0057072733 0.0070668464 0.024078136 0.067258015 -0.04176859 0.052768297 0.021616392 -0.058965348
0.04196632 -0.037432924 -0.027822956 -0.026461996 -0.076005735 0.03702241 -0.07275418 0.05632149
-0.06903178 0.00096674985 0.005271675 0.06283621 -0.03198717 0.04161337 0.038130287 0.024566283
0.015821047 0.04584973 -0.053394586 -0.061422035 0.07876088 -0.0519366 -0.0028367203 0.0018773354
0.08643321 -0.008975881 -0.047428522 -0.0077522616 0.045592573 0.035027433 0.08485459 -0.01809459
0.041634932 -0.08317697 0.04358531 0.05028367 0.057018172 -0.05068561 -0.012459157 0.021383772
-0.062810056 -0.059926692 -0.070786156 0.0049340893 0.054888092 0.022703422 0.042023994 0.049083047
-0.0555436 0.009318425 -0.02195775 -0.04376493 0.08705903 -0.05768226 0.012953159 -0.06003993
-0.0029987271 -0.029573508 0.0290928 -0.049633414 0.06618395 -0.063130155 0.05308919 -0.053712804
0.062455453 -0.025429398 -0.00020590842 -0.005203018 0.08830258 0.028967297 -0.0778882 0.00812647
00000000: 91c0 10bd 01e2 28bc 9915 01bd 1aa6 c53d
00000010: 2ede 0a3d be24 b23d e0cb 0f3d 28f4 a33c
00000020: efd4 143d ea8c 783c 0e0f 8ebd c517 56bd
00000030: ad6d afbc 0170 373c 9d62 083d 0167 0b3d
00000040: e59a 8f3d a980 043d f561 71bc 9d21 88bd
00000050: b93b 38bd 5f42 58bd cb4c 173d 7299 433d
00000060: 4860 9e3d 19bc a7bc 2978 e4bb 4606 d7bc
00000070: 7954 a9b9 0a6e e83c 6d8b feba e2ef 3d3c
00000080: 222e c03c 6fd4 063d 73cf 51bc ffe1 57bd
00000090: e1d3 aa3c cdb6 9a3b 7e03 24bd f80a 183d
000000a0: 9022 523a c3a7 52bc b989 00bd c425 fc3c
000000b0: dfec 99bd 78b8 a43c 94a4 17be c1b2 5b3d
000000c0: 1404 bb3b 0191 e73b 833f c53c 92be 893d
000000d0: 8b15 2bbd 9223 583d dc14 b13c a685 71bd
000000e0: e0e4 2b3d 4453 19bd f8ec e3bc d4c6 d8bc
000000f0: e5a8 9bbd d0a4 173d 2500 95bd 5db1 663d
00000100: 8960 8dbd 7c6d 7d3a 04be ac3b 45b0 803d
00000110: fb04 03bd c872 2a3d 812e 1c3d 3b3f c93c
00000120: 249b 813c edcc 3b3d 48b4 5abd ac95 7bbd
00000130: 624d a13d 79bb 54bd 45e8 39bb ec10 f63a
00000140: e503 b13d 930f 13bc 6944 42bd af06 febb
00000150: 47bf 3a3d ed78 0f3d 3ec8 ad3d 1b3b 94bc
00000160: 6489 2a3d b058 aabd 8386 323d 40f6 4d3d
00000170: e38b 693d b79b 4fbd 7e21 4cbc 052d af3c
00000180: 8fa2 80bd b175 75bd 55f8 90bd 24ae a13b
00000190: 56d2 603d 87fc b93c 5a21 2c3d 4e0b 493d
000001a0: b081 63bd 4fac 183c bde0 b3bc db42 33bd
000001b0: 014c b23d 3c44 6cbd 7d39 543c 6eec 75bd
000001c0: 4b86 44bb 2444 f2bc 0654 ee3c 684c 4bbd
000001d0: 738b 873d 624a 81bd 0d74 593d f501 5cbd
000001e0: 4ad1 7f3d 5051 d0bc 1fe9 57b9 147e aabb
000001f0: fcd7 b43d d34c ed3c d983 9fbd e324 053c
